HW1/weights_AT_0.1.pt (torch, 638152 bytes, 4 tensors)

1.fc.weight f4 [200, 784]
00000000: 46cf 78bb ab89 e13c b658 cebc 25ca a1bb
00000010: d4e7 6c3c d3c8 533c 9b76 c73c 2e18 093d
00000020: 0181 73bc 1dd2 0f3d 50cf 03bd bc68 863c
00000030: 7166 e93c 1856 f0bc 7840 533c 8530 883c
00000040: 1918 bd3c b40e 463c 75db b8bb 660b 9e3c
00000050: 5a89 cd3c ad61 d33a 7f58 bfbc c7da fd3c
00000060: 76d3 9f3c 05f9 fabc 7a42 853c 7612 253c
00000070: 5332 aa3c e150 9fb9 0cee 863c 7cd5 8cbc
00000080: 4c44 c03c 1c40 743b 33ce 30bc b1a7 0ebc
00000090: abc9 e0bb 756c 973a 781b bbbc 83b8 d2bc
000000a0: 67f4 e0bc bb1c 9e3a d1b6 003d b392 ed3c
000000b0: 9857 813b e112 b9ba 725f a83c a602 083c
000000c0: 24e4 383c 29a3 9f3c 84a3 a63c 4e89 3e3c
000000d0: 7830 883c 9ab1 683c 7163 3b3c 247f f2bc
000000e0: ba98 d8bc 13f1 2dbc 4a34 0ebd d317 5d3c
000000f0: 5f7c 0e3c d3ab 3ebc 0463 8bbc 7d17 243c
00000100: 4e66 98bc e315 84bc d2f9 a73a c86e efbc
00000110: 1f01 98bc 1ec0 cdbc f919 c6bc 3e46 84bc
00000120: ca18 e3bc ca72 603c 1dbb ef3c 4e26 1abc
00000130: 4af6 923c 6d60 17ba 7b96 6dbc 9ef4 e4bc
00000140: 6a12 efbb a0d0 99bc c70b e73b 5e32 f9bc
00000150: 1151 813c 1dcd 493c ceb9 56bb 6d9d 8cbc
00000160: 4053 24bc 007d cabc 91c6 cebc 688d a63c
00000170: 287b 11bd 8220 8dbc 7050 fd3c f360 08bd
00000180: f862 f73c 3d32 05bd 4e12 863c 806b a8bc
00000190: f93a b7bc 03c9 75bc e826 843c 6af5 f83c
000001a0: 0a9e f53c cb30 2939 6ad1 80bc 3715 8ebc
000001b0: bf06 2c3c ea9a cc3c 5834 a53c ab4e 82bc
000001c0: f534 a93c 6c98 0ebd 3bdc 3e3c 1b53 a3bc
000001d0: c2db ff3b 3745 b3bc c15b 9d3c 3c60 e03c
000001e0: 9ded 0fbb 9109 80bc 0286 27bb f50a b33b
000001f0: 2551 ffbb cb4e 06bd 20d6 0abd d19b f3bc
00000200: f6e7 82ba 797d d7bc e368 003d 35f5 92bc
00000210: ebbf 733c b4cd e33c a7e9 4e3b 171a 86bc
00000220: 897d 0b3d d40a 8dbc cf13 6cbc ec02 003d
00000230: 17a3 a93c 4523 c43c d658 f9bc ffb9 453c
00000240: 454e 343c c626 fd39 4404 afbc c69f 17bc
00000250: 15fd fa3c b0da 0dbb 4c88 a03c 769b 44bc
00000260: baf5 b73c 27ad e53c 8939 b93c 21f2 27bc
00000270: a808 83bc 368a b0bb a37f 49bc 39f6 ff3c
00000280: 22ca 45bc 95d7 e43b 2424 bebb ed46 ae3c
00000290: 9a66 b3bb 018a f5bc b196 f63c 112e f43b
000002a0: 7dc6 27bb a803 a2bc d645 a53a ad24 3d3b
000002b0: c6df 8fbc aa65 18bc dd46 03bd c1c9 963c
000002c0: ada1 c0bc d29a 9ebc 6610 d8bc 3ee2 133c
000002d0: 3595 4a3c 9b88 153a 5905 833c 63ff 05bd
000002e0: 300a 2c3c 4ae2 9a3c 9dba e3bb 2f70 08bd
000002f0: 19ad 05bc 3989 123c 4319 e93b 97dc d13c
00000300: bdd8 77b9 f7d3 a5bc bc4f 0cbb 01b7 203c
00000310: f201 31bc 0f0c 4bbc d645 1fbc 5a70 00bd
00000320: f5a6 fbbc 464e a93c 4325 34bc ed75 10bd
00000330: eecc 69bb d3dd 14bc 34f1 e83c 903d 0dbd
00000340: 55b6 4dbc c2f5 1dbd 7128 db3b d5f1 963b
00000350: 49ac a13c 2b53 053b e487 b23c b5d8 d5bc
00000360: 9951 ac3c ed42 553c e6ff 803c b912 1dbc
00000370: 7c57 a2bb 25c5 b73c 2e99 bc3b a5a8 f0bc
00000380: 2a19 d03c be0f d23c 1151 0a3d a6ac 073c
00000390: d8a6 06bd c678 1a3c 502d a5bb 9558 02bd
000003a0: 0f4d b03c 7f37 f33b 2bb7 853b 3b25 02bd
000003b0: bbb4 adb9 5f9d 10bd b11d 633c 72ad 403c
000003c0: 3305 833c 3ce6 a03c 9607 9bbc 801b b0bb
000003d0: 992c b93c 579a ab3c a700 903b 928b ccbc
000003e0: 938d a43c c916 043d 3bef 0b3d 20d2 573c
000003f0: 7bd4 623c dfa4 c0bc 48a3 0abd 7402 f53b
-0.0037965341 0.027531466 -0.025188785 -0.0049374276 0.014459569 0.012926298 0.024348548 0.033470325
-0.0148623 0.03511249 -0.03218013 0.016407363 0.02849123 -0.029337928 0.0128937885 0.016624698
0.02308278 0.012088466 -0.0056413957 0.019292545 0.025089908 0.0016127132 -0.023357628 0.03098811
0.019510012 -0.03063632 0.01626705 0.010075202 0.02077595 -0.00030387103 0.016470931 -0.017191641
0.023470066 0.0037269657 -0.010791349 -0.008706973 -0.006859978 0.0011552708 -0.022840247 -0.025722748
-0.02746029 0.0012063006 0.031424347 0.029000616 0.0039472096 -0.0014120006 0.020553324 0.008301413
0.011284862 0.01948698 0.020341642 0.011629416 0.016624674 0.0142025 0.011437283 -0.029601641
-0.026440013 -0.010616559 -0.034717835 0.01349445 0.008696645 -0.011637646 -0.017014988 0.010015366
-0.01860347 -0.016123718 0.0012815541 -0.02922763 -0.018555222 -0.025116023 -0.024182307 -0.016146775
-0.027721781 0.013699243 0.029264027 -0.009408547 0.017939705 -0.00057745614 -0.014501209 -0.027948674
-0.0072958963 -0.018776238 0.0070509645 -0.030419525 0.015785726 0.012316969 -0.0032764557 -0.01716491
-0.010029614 -0.024717808 -0.025241168 0.0203311 -0.03551784 -0.017227415 0.030922145 -0.033295583
0.03019856 -0.032518614 0.01636615 -0.020559072 -0.022366988 -0.015001538 0.016131833 0.03039046
0.029982585 0.00016135273 -0.015724856 -0.0173441 0.010499655 0.024976213 0.020166561 -0.015906652
0.020655135 -0.03481333 0.011649187 -0.019937089 0.0078081796 -0.02188359 0.01920879 0.027389638
-0.0021961697 -0.015629562 -0.0025562053 0.0054639527 -0.0077916556 -0.032789987 -0.03389561 -0.029737385
-0.0009987343 -0.026304947 0.031350028 -0.01793919 0.0148773 0.027808048 0.0031572373 -0.016369862
0.034055267 -0.017217077 -0.01440902 0.031252787 0.02070765 0.0239426 -0.030437868 0.012068271
0.011004989 0.0004828481 -0.021364339 -0.009254402 0.030638257 -0.002164524 0.019596241 -0.011999955
0.022456039 0.028036667 0.022610443 -0.010250599 -0.015995339 -0.00538757 -0.012298497 0.031245338
-0.012072118 0.006983707 -0.005802648 0.021274054 -0.0054748775 -0.029973032 0.030101152 0.0074517806
-0.0025600486 -0.019777134 0.0012609314 0.0028860972 -0.017562758 -0.009301582 -0.032050002 0.01840675
-0.023514593 -0.019360933 -0.026375007 0.009026108 0.012364675 0.0005704255 0.01599376 -0.03271426
0.010500476 0.018906731 -0.0069497363 -0.03331011 -0.0081589455 0.008943849 0.007113607 0.02561788
-0.00023636497 -0.020242674 -0.002140983 0.0098092565 -0.010803686 -0.012393012 -0.00972124 -0.031357147
-0.03071926 0.020667206 -0.010995212 -0.035268713 -0.0035675126 -0.00908609 0.028435327 -0.03448254
-0.012555678 -0.03856445 0.0066881706 0.0046064653 0.019735472 0.0020343761 0.021793313 -0.02610431
0.021035003 0.013016445 0.015747022 -0.009586983 -0.0049542766 0.022432873 0.005755565 -0.029377291
0.025402624 0.025642272 0.033768717 0.008280909 -0.03287396 0.009428209 -0.005040802 -0.03182276
0.02152112 0.007422387 0.004080673 -0.031773787 -0.00033131786 -0.03530633 0.013862059 0.011760103
0.01599369 0.019641034 -0.018924516 -0.005374372 0.022604274 0.020947618 0.004394609 -0.024968896
0.02008704 0.032248292 0.034163695 0.013172656 0.013844605 -0.023516117 -0.033847123 0.007477099

1.fc.bias f4 [200]
00000000: 019f efbc e451 9ebb 7a51 913c 4c28 be3c
00000010: 0e67 11bb bc8b fdbc 2881 003d d28d 57bc
00000020: ffae c83c 3473 853c 7e61 813c 163d e43c
00000030: bd1e 6a39 f7f1 c9bc a9cc 78bc 9882 15bc
00000040: 3d4d a23b f42b 00bc 2c24 23bb e272 d03c
00000050: 12d8 d23c 1c86 93bb c0ae 55bc 2961 01bd
00000060: a591 193c a93a 75bc f72b 13bd 77a1 d33c
00000070: 1beb 6bbc f0e9 67bb 4e15 71ba 5d72 c6bc
00000080: 3fbd e7bc cc5d 6dbc ef9f ea3c 0e4b fc3b
00000090: 16c4 b13c cf7d c1bc e3d1 79bc cb9b a7bc
000000a0: a2de cd3b a48b 743c 63b2 2dbc 5f4c 13bd
000000b0: 0c68 203c 5af8 a63c bf19 f1bc 6a2e 8abb
000000c0: 5c8f 63bc e96d 1d3c bf4c 7dbc 7546 08bd
000000d0: aeb4 fa3c 48fd bd3b 4c35 47bc 494d c8ba
000000e0: 9f11 19bd 8d26 acbc 5b31 e6bc eff7 efbc
000000f0: e7e4 18bd ea79 c43c a2e6 bb3c 9b8d ca3c
00000100: f979 c43b bc76 a0bc 3e1f 6abc 9214 863c
00000110: 3844 0dbd 9174 443c c967 ac3b 35ae f83b
00000120: 27cb 78ba 554a e3bc c276 b9bc 5075 87bc
00000130: 391b e6bc 6b0d 053d 6583 25bd 295d e3b9
00000140: 29c8 dc3c 82ad a93a 5405 423c 7dd7 2bbc
00000150: 0b3b 8bbc 7e60 fb3b 1408 69bc 0420 10bd
00000160: f210 a03c 1c67 c8bc 3ec7 5bbc 9849 d83c
00000170: a742 f03c 2cff c93c 3ca3 8abb f8b9 a13c
00000180: 549a ac3b 45b2 f1bc 7714 0abd 9e04 daba
00000190: 4883 0b3c ed8a 54bb 800c bebb ff68 0abd
000001a0: 44fb b13c 8f03 74bc 5781 463c b20f 4e3c
000001b0: 4ae1 dcba 58a9 583c afcc 473c bdb6 0e3d
000001c0: 3cb4 83bb 95e9 dbbc 4cb1 1f3b 6e5a 013d
000001d0: 1a20 943c 8e8f c7bc 215a 3c3c e0b6 d43c
000001e0: af5e dfbc 48d7 9b3c 0f40 02bd e763 e5bc
000001f0: b7e0 f0bc d199 04bd 6322 66bc e0db 383c
00000200: 7939 08bd 0c9a 35bc 97a7 ae3c 2cd4 acbc
00000210: 2078 f03c ba1c 10bc 95dc fe3c 4da7 e3bc
00000220: 0761 0ebd 2915 abbc 5bb4 193b 73a3 2ebc
00000230: 546b eb3c 8862 d2bc 03b8 963b 183e 7ebc
00000240: d85b 1a3c 0808 53bc 8358 b53b be91 873c
00000250: 6cb6 5dbb 841b 10bd 5a93 5d3c c4e5 eabc
00000260: b701 a9bc 7f9b 9c3c 8117 1ebd 26ca 22bc
00000270: 7d1b e93c db7f 34bc 2c0d 16bd b414 493c
00000280: 0fde cc3b 4f6d 293b 9dc2 06bd 07a5 0cbd
00000290: 992d ce3c 955f c2bc 429b 9dbc 319b 2abc
000002a0: daf7 013d 03d0 c93c 12ef ab3c 53fa c73c
000002b0: e3f6 11bc 471c a7bc 9148 443c ed58 fe3c
000002c0: 953c 1dbd c155 e2bc 90df c0bc a599 37bb
000002d0: ce7b afbc dd14 993c 9fff 773c e134 0cbd
000002e0: 0465 2e3c 78ba 2c3c f0d1 87bc 90f3 82bc
000002f0: 1b3d dd3c 6031 c03c dbdb a1bc 70fa 013d
00000300: 1058 023d 4a94 a23b e438 d73c ddf1 b73c
00000310: 1d75 09bc cb35 ab3c 7e06 8e3c 73ea 0cbd
-0.029250624 -0.0048315395 0.017739046 0.023212574 -0.002218667 -0.03095042 0.031373173 -0.013156371
0.024497507 0.016290285 0.015793558 0.02786116 0.0002232743 -0.02465151 -0.0151855135 -0.009125374
0.004953055 -0.007822979 -0.0024893386 0.025445405 0.025737796 -0.004502071 -0.013042152 -0.0315868
0.009373103 -0.014967599 -0.0359306 0.025833828 -0.014399315 -0.003538724 -0.0009196595 -0.024224455
-0.028288482 -0.014487695 0.028640715 0.007699377 0.021699946 -0.02361956 -0.015247795 -0.02046003
0.0062826434 0.014925871 -0.010601613 -0.035961505 0.009790432 0.020382095 -0.029431222 -0.004216959
-0.01388916 0.009608724 -0.015460192 -0.033270318 0.030603733 0.0057980157 -0.012158703 -0.0015281822
-0.03737032 -0.021014476 -0.028099706 -0.029293029 -0.037327673 0.023983914 0.022937123 0.024725726
0.0059959856 -0.019587867 -0.014289675 0.01636723 -0.034488887 0.011990682 0.0052613956 0.0075891265
-0.0009490721 -0.027745405 -0.022639636 -0.016535431 -0.028089153 0.0324835 -0.04040851 -0.00043366224
0.026950913 0.0012945386 0.011842091 -0.010488388 -0.016995927 0.007671415 -0.014223117 -0.035186782
0.01953933 -0.024463229 -0.013414202 0.02640228 0.029328657 0.024657808 -0.004230885 0.019741997
0.005267421 -0.02950395 -0.033710923 -0.0016633456 0.008515187 -0.003243144 -0.00579983 -0.03379154
0.021726258 -0.014893427 0.012115798 0.012576984 -0.0016851809 0.013223968 0.012194796 0.03484224
-0.0040192883 -0.026844779 0.0024367152 0.03158038 0.018081713 -0.024360444 0.011496098 0.025966108
-0.027266828 0.019023553 -0.031799372 -0.028001739 -0.029404027 -0.032373253 -0.014046284 0.011282891
-0.033257935 -0.011084091 0.021320147 -0.021097265 0.029354155 -0.008795911 0.031111041 -0.027789736
-0.0347605 -0.020884113 0.0023453448 -0.0106590865 0.028737701 -0.025681749 0.0045995726 -0.015517734
0.009421311 -0.012880333 0.005534233 0.016548987 -0.0033830656 -0.03518249 0.013523901 -0.028674014
-0.0206307 0.019117115 -0.038596634 -0.009935891 0.02845549 -0.011016811 -0.036633655 0.012273002
0.0062520574 0.0025852507 -0.03290044 -0.03433707 0.025168227 -0.023727218 -0.019239072 -0.010412977
0.03173051 0.02463532 0.020988021 0.024411356 -0.00890896 -0.020399226 0.011980192 0.031048262
-0.038387854 -0.027628781 -0.023544103 -0.0028015163 -0.02142134 0.018686706 0.015136628 -0.034230117
0.010644201 0.0105425045 -0.016579598 -0.01598528 0.027006676 0.023461044 -0.019758156 0.031732976
0.031822264 0.004961525 0.026272245 0.022454197 -0.008389738 0.020899674 0.01733708 -0.034403276

1.fc2.weight f4 [10, 200]
00000000: 662e 66bd 0583 f539 db9d 0f3d c8ad 03bc
00000010: c847 77bb 677d 993c 3ce7 f2bc 5653 063d
00000020: 4511 893c c7bc a2bc ed66 983c 723f 3b3c
00000030: 4f8f 2cbd dca9 c53c 0c8d 833c 9729 2ebd
00000040: 22fe a93b de65 673c 942d af3c bf22 233d
00000050: 3396 f0b9 9217 093d 44bd 553c 3eb4 313d
00000060: 0588 f33c 7afa b53c 6016 82bc b030 203d
00000070: d776 06bb e7ee 13bc 7910 c4bb 5d17 f13c
00000080: e2dc a8bc 17c6 44bd d918 bd3c f520 af3c
00000090: 29be d23b 4dbc 50bc 8f90 c8bb 1327 3a3d
000000a0: e1e8 093c d3cf 1abc a74f f5ba cef8 113d
000000b0: bdd2 ad3b 3036 de3c df79 94bb 1533 cebc
000000c0: 5887 c53c 61c8 533d 37b1 673c ef12 3a3c
000000d0: 08a4 bd3b 44e3 523d c7ba 163d 7656 38bd
000000e0: e421 66bc 4b85 3ebd 056e 5cbc 1842 a13c
000000f0: d106 053c dbbf c93c 66c6 bfba 0d5f a3bc
00000100: 2302 ae3b ff5d afbc c318 b63a 0871 1c3d
00000110: bd17 babc f575 dd3c 07a6 e53b 7fe8 9c3c
00000120: b3b1 0e3d ae04 e53c d418 4cbc 3a01 093a
00000130: 8a81 973c 5fc9 28bb 2cec 153d 089e 223c
00000140: 8ef4 e1bc 906c dabb a7b6 353c 21a0 aebc
00000150: 838a 4938 6bef 523c e1d7 5abd d6e5 50bd
00000160: 09ee d43c 3b75 33bc 1199 c7bb 4959 ee3c
00000170: cc49 3f3c 15a6 92bc 86b9 23bd 22da 15ba
00000180: f930 c2bc 348e 3dbd 1ba8 d83b ce80 27bc
00000190: 2487 25bd ccab a3bc c7d9 773c f9df 6abb
000001a0: 6f5b e8bc 0b42 08bd 282f 503c e5c8 34bd
000001b0: ef19 34bd 0a3e 04bd fabf d2bc 4a2e a5bc
000001c0: 599e 8c3c b055 173d d805 1cbd 87fc be3b
000001d0: 0bb0 133c f5eb a63c 52f4 74bb ba23 3dbc
000001e0: f5ae 84bc c045 2e3d f168 26bd 082d 95bc
000001f0: c276 103c e87f 56ba 383c aa3c fee4 d83b
00000200: f5f5 4ebd d772 373d 9710 f638 79af 873b
00000210: 1ddb 633b cd28 ffbc 676e 65bb 4e16 bcbc
00000220: 13fe 2fbd bf90 023d 9627 c43c 38ac 97bc
00000230: 637c cebb 0714 20bd 7cad 3abd 785b 7a3c
00000240: bcbf 063d 1fa9 0c3c dd61 353d 3bb0 65bc
00000250: ee24 993c 5b95 d93a 7d64 e5bc f40a e03c
00000260: 4274 82bc 2372 0e3d 5536 03bc 8d13 1b3d
00000270: cb26 103d b0de 183c 1461 133d c06e a4bc
00000280: 9dc1 93ba 50dd fa3c 1695 03bc 78f9 d33c
00000290: 37fd 3fbc 5b79 fcbc bf35 9dbc 8062 653c
000002a0: 2856 ea3c d460 8eba 4155 b7bc f56e ff3b
000002b0: 7b7d 5b3c da38 933c 1fb2 55bd 77cb cabc
000002c0: 1699 7a3b 0c43 b4bc 24c4 153d 883a c1bb
000002d0: 31ac 9f3c 8e89 6a3b 7b52 9ab9 e2b4 493d
000002e0: 3bda 953c 6896 a7bc 09c7 ccbc 3f86 45bd
000002f0: ee43 023d ff25 223c 89d1 01bd 8de0 4c3c
00000300: 4f12 1d3d faf0 17bd 3bd4 3dbc bc2c 9a3b
00000310: d5f6 213d 0096 353c 8348 2a3c 8095 563b
00000320: d0de 1cbd d6e6 e1ba 89bf 18bd 1846 543d
00000330: 5d7e 52bc d90b 3e39 cc9e 743c 66b8 96bc
00000340: 8122 373d 3932 b8bc 2542 a9bb 0a46 e8bc
00000350: 4876 30bd c4c1 cf3b dc4a 1ebb db38 013d
00000360: 87c7 8bbc a62b 99bc d615 d93b 3ed0 73ba
00000370: 9d88 e7bc 9fee aa3c 79e0 f83c 43ce dfbc
00000380: b544 a83b f999 e53c ac75 8fbc 903b dd3c
00000390: b490 de3b a851 2dbb ece0 3ebb 67a7 033d
000003a0: 1c84 adba e3e0 113d 22b4 b9bc 612b 833c
000003b0: d85f 263d 196a 413c d1a5 cf3c 05b0 8cbc
000003c0: b35d 9a3c 3bae c0bb 9f2a 4bbc 6d11 d4bc
000003d0: d794 1bbb 4e62 4b3d 34ec d83c 56ca 47bc
000003e0: 18ac c53c e860 2f3c bb19 593b 3ed2 d93c
000003f0: 761d 173d 8373 9fbc b98b 223c 9e5c 93bc
-0.056196593 0.0004682766 0.035062652 -0.008037038 -0.0037731994 0.018736554 -0.029651277 0.03279432
0.016731868 -0.019865407 0.018603766 0.011428701 -0.042128857 0.024128847 0.016058467 -0.042520132
0.0051877657 0.014123408 0.021384038 0.03982806 -0.00045888274 0.033469744 0.013045613 0.043384783
0.029727945 0.022214163 -0.01587981 0.039108932 -0.0020517611 -0.009029127 -0.005983409 0.029430086
-0.020613138 -0.048040476 0.023083137 0.02137802 0.0064313603 -0.012740207 -0.0061207484 0.04544742
0.008417339 -0.009448963 -0.0018715755 0.03563767 0.005304663 0.027125448 -0.0045311297 -0.025170842
0.024112388 0.051704768 0.014141372 0.011357053 0.0057873763 0.05148627 0.03679922 -0.04500433
-0.014046166 -0.046513837 -0.013453965 0.019684836 0.008119301 0.024627617 -0.0014631271 -0.019942785
0.0053103133 -0.021407126 0.0013892878 0.038193733 -0.022716397 0.027033785 0.0070083174 0.019153832
0.034837436 0.027956333 -0.012457091 0.0005226318 0.018494386 -0.0025754792 0.036602184 0.009925373
-0.027582433 -0.0066657737 0.011090911 -0.02131659 4.8051133e-05 0.0128744645 -0.053428534 -0.05100044
0.02599241 -0.010953243 -0.006091245 0.029095309 0.011675309 -0.01790146 -0.03997185 -0.0005716403
-0.023704993 -0.046278194 0.0066118366 -0.0102235805 -0.040412083 -0.01997938 0.015127606 -0.0035839065
-0.028363911 -0.03326611 0.012706555 -0.0441369 -0.043970045 -0.032285728 -0.025726307 -0.020163674
0.01716535 0.036946952 -0.03809151 0.0058284434 0.00901414 0.020376185 -0.0037377072 -0.011544162
-0.016196707 0.042546988 -0.040627424 -0.01820995 0.008817377 -0.00081825117 0.020780668 0.006619095
-0.05052753 0.044787254 0.00011733284 0.004140791 0.0034768053 -0.031147385 -0.0035008432 -0.022959854
-0.042966913 0.031876322 0.023944657 -0.018514737 -0.006301449 -0.0390816 -0.045575604 0.015280597
0.032897696 0.0085852435 0.044282783 -0.014019067 0.018694367 0.0016600298 -0.028002018 0.027348973
-0.015924577 0.034776818 -0.008008559 0.037860442 0.035193246 0.009330437 0.035981253 -0.020072341
-0.0011272911 0.030623108 -0.00803115 0.025875792 -0.011718086 -0.030819586 -0.019190667 0.014000535
0.028605536 -0.0010862597 -0.02237952 0.0077952095 0.013396616 0.017971445 -0.052171823 -0.024755223
0.003823822 -0.022004627 0.036564007 -0.00589687 0.019491287 0.0035787555 -0.00029434622 0.04924477
0.018292537 -0.020457461 -0.024997251 -0.04822373 0.031803064 0.009896754 -0.03169397 0.012504709
0.03834754 -0.037095048 -0.011586244 0.00470504 0.039542038 0.011083126 0.010393265 0.0032742918
-0.038298428 -0.0017234932 -0.037292037 0.05182466 -0.01284751 0.00018124226 0.014930438 -0.018398475
0.04471064 -0.022484886 -0.0051653557 -0.02835371 -0.04308155 0.0063402373 -0.0024153506 0.031548362
-0.017062915 -0.018697571 0.0066249175 -0.0009300745 -0.028263384 0.020865737 0.030380474 -0.027320033
0.0051351436 0.028027521 -0.017512165 0.02700594 0.0067921523 -0.0026446376 -0.0029125763 0.03214207
-0.0013238224 0.03561486 -0.022668902 0.016011896 0.040618747 0.011805081 0.025347622 -0.017173776
0.018843507 -0.005880145 -0.012400298 -0.025887216 -0.0023739839 0.049654298 0.026479818 -0.012194237
0.024129912 0.010704257 0.0033126909 0.02658951 0.03689333 -0.01946426 0.009921008 -0.0179885

1.fc2.bias f4 [10]
00000000: 132f b83c 2a4a a03d 5b51 1fbd 38d4 1d3d
00000010: 0150 2bbc 9a13 093d 34cc c43c 38f7 c3bc
00000020: ca7e 4ebd dd5e c53c
0.022483384 0.07826646 -0.038895946 0.038532466 -0.010456086 0.03346596 0.024023153 -0.023921594
-0.050413884 0.024093086
