HW1/weights_AT_0.1_2.pt (torch, 638168 bytes, 4 tensors)

1.fc.weight f4 [200, 784]
000000 2f 95 b3 3c 7c e9 06 bc b9 c8 7c bb 69 ea ae 3c
       0.021921722 -0.008234378 -0.0038571788 0.02135201
000010 dc 8e ee bc 69 84 48 3b 12 6e 90 3a 0e 9b 9e 3c
       -0.029120855 0.00305965 0.0011019132 0.019361045
000020 a0 ef d7 3c 40 c5 9a 3c 26 3c 84 3c 6c 8e f9 3c
       0.02635938 0.018892884 0.016141962 0.03046342
000030 2f a3 45 3c 4e 40 05 3d 74 6c 06 bd f3 14 0a 3c
       0.012062832 0.03253203 -0.032818273 0.008427846
000040 54 33 8a bc e5 39 07 bc 6d ad a4 b9 94 21 32 3c
       -0.016870178 -0.008253549 -0.0003140973 0.010872263
000050 ac ac 8d ba 00 73 0e bd d3 a0 bd bc 53 b7 a4 3c
       -0.0010808907 -0.03477764 -0.023147976 0.020106947
000060 40 c3 89 3c 54 3f 66 bc aa b6 04 3d f0 0a 11 3a
       0.016816735 -0.014053185 0.032400765 0.0005532941
000070 c7 04 b8 bc 31 50 46 3c 1d 8f 3f 3c ef 86 7c bc
       -0.022463216 0.01210408 0.011691836 -0.01541303
000080 ec fc a8 3c ff 7c d6 3c 53 a9 02 3d b8 f4 93 3c
       0.020628415 0.02618265 0.03189976 0.018061027
000090 b1 d1 46 bc 04 d6 dd bc 99 00 f5 bb 42 ed d5 bc
       -0.012134955 -0.02707959 -0.007476878 -0.02611411
0000a0 de 86 e6 bb 05 50 bc 3c 16 1c 31 bb ab f7 a0 bc
       -0.0070351204 0.022987375 -0.0027024797 -0.019649347
0000b0 6b 57 dc ba d8 61 9d bc 21 8d 89 bc e9 46 34 bc
       -0.001681072 -0.019211695 -0.016790928 -0.011003234
0000c0 ba 41 2b b9 c4 d4 0c 3b a8 94 e1 3c ff 1f 24 3c
       -0.00016332316 0.0021489123 0.027536705 0.010017394
0000d0 c0 fe 38 bc 9e 11 00 bc 2e 1a 4b bc 32 ea d4 3c
       -0.011291206 -0.0078167 -0.012396378 0.02599058
0000e0 4b 0a 09 bd ab c0 e3 bc 60 2b db 3c ed 49 fc bc
       -0.03345708 -0.027801832 0.026754081 -0.03079697
0000f0 dd 83 f3 bc 27 69 25 bb 06 c6 12 bd 11 ef 4a 3c
       -0.029725963 -0.0025239678 -0.03583338 0.012386099
000100 76 b5 ff bc 78 4d 9b 3c 48 46 50 3c 0c 92 df bb
       -0.031214457 0.018957838 0.012712069 -0.00682283
000110 19 ae 7a bc 44 22 0b bc f7 dc 3c bb 26 c2 13 3c
       -0.015300297 -0.008492056 -0.0028818229 0.009018457
000120 ec c4 84 bc e9 7b f8 3c b5 73 cf 3b d3 8b 88 3c
       -0.01620718 0.030332522 0.006330932 0.016668236
000130 13 41 d4 3c 96 34 ff 3c 10 13 f4 bc c7 a0 c6 3c
       0.025909936 0.031153005 -0.029794246 0.024246586
000140 31 77 54 bb 29 96 88 3c 7f 2a 0b bc cc 4e dc bc
       -0.0032419676 0.016673164 -0.008494019 -0.026893042
000150 ff 61 7d 3c 27 0f 15 ba d3 b5 5f bc c6 87 e0 bc
       0.015465259 -0.0005686157 -0.01365419 -0.027408492
000160 7d 4c eb 3c 27 54 36 bc b3 97 d4 3b 7f ae ab 3c
       0.028722996 -0.011128462 0.0064878105 0.02095723
000170 81 99 01 bd 7e 00 7a 3b ae bc 0c 3d ac a8 b2 3b
       -0.031640533 0.0038147266 0.034359626 0.005452236
000180 6f 24 e0 3c 0a 94 29 3c 11 26 fe bc 1b 74 ce 3c
       0.027361123 0.010350237 -0.03102401 0.025201848
000190 0e 1d 23 bc 80 e5 1a 3c 4f bb d1 3c 85 82 b1 3c
       -0.009955658 0.009454131 0.025602011 0.021668682
0001a0 9a b8 08 bd 2c ec c5 3c 5e 52 fe bc 7b 6c 89 bb
       -0.033379175 0.024160467 -0.031045135 -0.00419384
0001b0 53 d3 02 3d 44 20 04 bd 4c e0 42 3c fd e6 2c bc
       0.031939816 -0.032257333 0.011894297 -0.010553119
0001c0 e4 fe 47 bc 77 02 11 3d 99 51 4d 3c a6 05 8c bc
       -0.012206767 0.03540274 0.012531661 -0.017092537
0001d0 0f 55 87 3b 56 62 be bc 54 bd 0a 3d 3a d5 34 bc
       0.004130013 -0.02324025 0.033871964 -0.011037165
0001e0 fc aa c9 bb 68 4e f4 bc 18 c7 8e bc da f7 b1 bc
       -0.006154416 -0.029822543 -0.01742892 -0.02172463
0001f0 1a a3 05 3b 1c 16 01 bc e4 a9 5f 3a 59 c2 0e bd
       0.0020391406 -0.007878806 0.00085320906 -0.034853313
000200 66 b7 08 3d f2 57 f7 bc a4 f8 c2 3c 7a 44 d8 bb
       0.033378027 -0.030193303 0.023800202 -0.00659996
000210 8c 36 ec bb ef 90 e7 bc 45 a1 03 bd 8f 1b 6a 3c
       -0.007208651 -0.028267352 -0.03213622 0.014288797
000220 93 6e c6 3a b3 69 c0 3c a1 ba 09 bd f4 46 d0 bc
       0.0015139155 0.023487901 -0.03362525 -0.025424458
000230 6c 94 85 bc 8c 86 b6 bc fb 87 91 bc 3b 6d bd 3c
       -0.016306125 -0.022280954 -0.017765036 0.023123374
000240 3e 30 70 3c 66 5e da bb 2e 81 46 bc 23 91 66 3c
       0.014659939 -0.006664085 -0.01211576 0.014072689
000250 e6 1b 61 bc 3f 2b 05 3d fb 30 ce bc 64 e2 9e 3c
       -0.013739562 0.032511946 -0.02516984 0.01939506
000260 06 99 90 3a 25 92 2a 3b dc b8 09 bd 7a e0 4b bc
       0.0011031933 0.002602705 -0.03362356 -0.012443656
000270 09 41 d6 bc 6d 8b 62 3c 4f 54 e0 bc 9e 72 95 bc
       -0.026154058 0.013827187 -0.027383951 -0.01824313
000280 6e f9 aa bc 22 4c 22 ba 7d be 02 3d 51 e8 02 bd
       -0.02087089 -0.0006191154 0.031919945 -0.031959835
000290 b5 9d 49 3c b7 21 83 bc 94 4b 09 3b 5c 83 96 bb
       0.012305667 -0.016007287 0.002094959 -0.004593296
0002a0 54 3d f0 bc 91 a7 01 3d 57 1c 04 3d e4 d6 b7 3c
       -0.029326119 0.031653944 0.03225359 0.022441335
0002b0 cf 47 31 3c 83 9f 0e 3d 8a 42 f2 3c aa 8b de bc
       0.010820343 0.03482009 0.029572744 -0.027166206
0002c0 fd 8a ed bc 52 39 07 bc 11 26 29 bc a1 53 12 bd
       -0.028996939 -0.008253412 -0.010324017 -0.035724286
0002d0 df 6a ba b9 11 8b b9 bc eb 8d 52 bc 85 13 7c bc
       -0.0003555631 -0.02264932 -0.012851219 -0.015385513
0002e0 57 bf f3 bc d6 2a 16 bd 1d aa 73 bc 47 22 89 bc
       -0.029754324 -0.036661945 -0.014872101 -0.016739978
0002f0 d7 bf 01 3d 46 c8 e1 ba 71 82 06 3c 6f 83 4e 3c
       0.031677093 -0.0017225824 0.008209811 0.012604578
000300 a0 d1 d5 3b 6b 00 7e bc 09 6e d1 3b ce 82 54 bc
       0.0065252334 -0.015503029 0.006391291 -0.012970639
000310 a8 76 94 bb 30 d7 74 bc f2 76 cf bb 68 63 8d bb
       -0.0045307465 -0.014943883 -0.006331318 -0.0043148287
000320 12 c5 f1 3c 81 e6 3b bc 58 a7 f3 bc 75 f9 05 bd
       0.029512916 -0.011468531 -0.029742882 -0.032708604
000330 11 93 1b bc af e4 8d 3c 4f 2b ec 3c 8f bc de 3c
       -0.009495513 0.017320959 0.028829245 0.027189521
000340 41 f8 23 3a 74 79 11 3c 9f d4 03 bd 1c 4c d0 bc
       0.0006254949 0.008879054 -0.032185193 -0.025426917
000350 69 00 bf 3b 8c 8f dc bc f8 1e 82 bc 71 c3 b4 bc
       0.0058289063 -0.026923917 -0.015883908 -0.02206585
000360 6d 97 94 3b 53 fa 36 3c f9 e7 87 3c 03 38 0e bc
       0.004534653 0.01116808 0.016590105 -0.008680346
000370 0e 9d dd bc 9f 21 b2 3c dc f1 ac bc 6a b4 f2 3c
       -0.027052429 0.021744547 -0.021111421 0.029627044
000380 4d a6 94 3c cb ad e1 3c 43 47 91 bc 1e cd cd 3b
       0.018145705 0.027548691 -0.017734176 0.0062805554
000390 e0 da 43 3c 7b a7 42 bc 81 70 db bb 71 90 98 bc
       0.011954039 -0.011880751 -0.006696761 -0.018623563
0003a0 67 71 61 bc c7 0f 0b 3b 91 22 ac 3c 6b 24 16 bc
       -0.013759947 0.002121912 0.021012576 -0.009163956
0003b0 a3 ad 6c 3b 07 c1 c9 bb 29 b0 f8 bc 9e c3 df bc
       0.0036114238 -0.006157044 -0.030357437 -0.027314957
0003c0 7a 3d f6 3c 8f 09 da bc 87 e3 c1 3c 85 38 08 3c
       0.030058611 -0.026615886 0.023668064 0.008314257
0003d0 e7 44 0f bd 52 0b 6f ba 36 28 7f 3c 22 60 a1 3b
       -0.03497782 -0.00091188133 0.015573552 0.00492479
0003e0 cf a1 fe 3b f3 be 13 3c c0 9f 0e 3c b0 17 e1 3c
       0.007770754 0.009017694 0.00870508 0.027477115
0003f0 4a d9 7a 3c 6c ca f1 bc 25 36 ce 3c e4 c7 88 bb
       0.015310595 -0.029515468 0.025172302 -0.0041742194

1.fc.bias f4 [200]
000000 27 fd e8 3c 13 8e bd bc f4 55 32 bb f1 59 b6 3c
       0.028441025 -0.023139035 -0.0027211877 0.022259684
000010 45 b9 f5 bc d8 71 d9 bc cb 37 a9 bb 60 76 f5 bc
       -0.02999557 -0.026543543 -0.0051641217 -0.029963672
000020 e4 4a 23 3c f0 55 9c 3c 63 db d0 3c 55 dd e2 bc
       0.009966586 0.019083947 0.025495237 -0.02769343
000030 b1 52 d0 bc fb a0 f1 ba e6 26 91 3c 97 9a af 3c
       -0.025430055 -0.0018434817 0.017718744 0.021436019
000040 b9 7d 83 3c 0d f9 23 3c 57 eb 1d bb 7c b8 a9 3c
       0.01605116 0.010008109 -0.0024096572 0.020717852
000050 bc db 9c 3c 19 9c fc b8 4b 3c be 3c 35 b2 54 bc
       0.019147746 -0.00012045372 0.02322211 -0.012981941
000060 23 22 82 bc 8f 71 fc 3c 50 8c e1 3c ae 64 65 3c
       -0.015885418 0.030815868 0.027532727 0.014001055
000070 b8 58 6e 3c a4 7b ed bc 33 5f 51 3a 09 d1 df 3c
       0.014547519 -0.02898962 0.0007986903 0.027321355
000080 6b a6 a6 bc 2f 2d 6a 3c 2e 69 b9 bb 1c 86 88 bc
       -0.020343026 0.014292999 -0.0056582903 -0.01666551
000090 97 cd 05 bd 06 c4 4d 3b 8e 7e 05 bd 37 19 b5 bb
       -0.03266677 0.0031397357 -0.032591395 -0.0055266875
0000a0 fa 94 ce bc 6b 87 30 bc 14 86 89 3b ce 15 18 bd
       -0.025217522 -0.010774474 0.0041968916 -0.03713017
0000b0 ca 72 1c bd ad d5 df 3c ae 09 ae bb b8 cf 81 bc
       -0.03819541 0.027323568 -0.0053112125 -0.015846118
0000c0 b6 fe 5a bb 16 a0 cb 3b f3 d2 21 bc 84 e3 a9 bb
       -0.003341598 0.006214152 -0.009876954 -0.0051845927
0000d0 09 c9 70 3b eb f1 c7 3c c3 8f 71 3b e7 10 ed 3c
       0.003674092 0.024407348 0.003685937 0.028938724
0000e0 bb 8a cf bc dc 1b d1 3c 1a c0 89 3c 36 df 66 bc
       -0.025334707 0.02552598 0.016815234 -0.014091304
0000f0 57 54 ec bc 7f a8 b1 bc b0 ac f2 ba 49 25 b6 bc
       -0.02884881 -0.02168679 -0.00185146 -0.022234576
000100 67 d8 e6 3c 7e 76 fa 3c f1 9f 01 3d 07 a9 08 bd
       0.02817936 0.03057408 0.031646673 -0.033364322
000110 99 b4 f4 bc 06 d4 87 3b fa 1c 23 3c 7f 28 9e 3c
       -0.029871272 0.004145148 0.009955639 0.01930642
000120 d1 b4 58 3c 73 d6 2e 3c 9f fc e6 3c b3 c1 fa 3a
       0.013226704 0.010671246 0.028196631 0.0019131213
000130 01 66 98 bc 40 9a 04 3c ce fb 90 ba 8e fc e6 3a
       -0.018603327 0.008093417 -0.0011061372 0.0017622875
000140 7c 54 58 3c 83 ff aa bc 41 7f e5 bc 28 ab 9a 3c
       0.013203736 -0.02087379 -0.028014781 0.018880442
000150 04 1f aa 3c 1f ec 79 3b c1 c0 e9 3c 0e ec 35 3b
       0.020766743 0.0038135124 0.028534295 0.0027759108
000160 4a 07 18 bc 84 f3 39 3b 1e 8d ac 3c 42 1e c4 ba
       -0.009279082 0.0028373906 0.021063384 -0.0014962631
000170 d2 83 9f bb 93 1d c3 3c a5 6e 08 bc b0 32 d2 3c
       -0.004868009 0.023817813 -0.008327161 0.025658935
000180 fa cd e5 3c 0c 99 ce bc 2f 67 e5 3c 9a da 43 bc
       0.028052319 -0.025219463 0.028003303 -0.011953974
000190 9b 04 13 bd 26 c9 10 bd f1 3f d2 3c 97 1e b1 3c
       -0.035893064 -0.03534808 0.025665255 0.021621032
0001a0 ba 9b b1 3c 10 ff 25 bd cb 12 0e bc 44 69 9b 3c
       0.021680702 -0.04052645 -0.008671473 0.018971093
0001b0 dc 38 03 bd 2b 12 10 bd 09 e0 ac 3b 12 ae 41 3c
       -0.032036647 -0.035173576 0.0052757305 0.011821287
0001c0 99 2e 35 3c 87 a5 de 3c ee 5f bf 3c 47 47 c5 3c
       0.011058473 0.027178539 0.023361173 0.02408184
0001d0 96 34 f5 bb 23 1c a8 bc cb 9b 91 3c a0 eb 16 bc
       -0.0074830754 -0.02052123 0.017774483 -0.009211451
0001e0 e5 6d ef 3b d3 36 a3 bc 21 5c 20 3c be 3d e6 bc
       0.0073068016 -0.019923603 0.00978759 -0.028105613
0001f0 58 16 07 3d c0 c4 0d bd 17 56 31 3c e2 29 3e bc
       0.032980293 -0.034611464 0.010823748 -0.011606665
000200 c2 2b c9 bc ba d5 61 bc 4a 0d 84 3c 29 d4 77 3c
       -0.024556998 -0.013783867 0.016119618 0.0151262665
000210 58 3b 8d bc 1f 68 ba bc 59 80 9e bc e0 69 8d 3c
       -0.017240211 -0.022754727 -0.01934831 0.0172624
000220 45 e7 06 bd 4e 97 b6 bb db 89 9d bc ec 24 15 bd
       -0.0329354 -0.005572236 -0.019230774 -0.036412165
000230 28 4a 08 bc 35 70 03 bd 8c 4c b7 ba 56 e3 b0 bc
       -0.0083184615 -0.03208943 -0.0013984605 -0.021592777
000240 13 4e c3 bc b6 01 f2 bc d2 09 d9 3b 03 f4 80 bb
       -0.02384094 -0.029541831 0.006623485 -0.0039353385
000250 dc 60 18 bd f5 05 be 3a a2 fb da bc fb af f0 3c
       -0.037201747 0.0014497625 -0.026731316 0.029380789
000260 28 fc f9 3c f7 17 f5 3c 05 38 10 bd 86 27 db 3c
       0.030515745 0.029918654 -0.035209674 0.026752245
000270 ad d0 b4 bc 21 4b eb 3c cf be c9 bc 0c be e2 bc
       -0.02207216 0.028722348 -0.024627117 -0.027678512
000280 34 b3 b8 39 03 28 39 3c e8 9e a4 3b 22 9d 96 bc
       0.00035228732 0.011301043 0.005023826 -0.018385474
000290 b2 67 da 3b 55 89 25 bd f2 98 8b 3c 1a 05 b9 bc
       0.0066651935 -0.040414173 0.017040703 -0.02258544
0002a0 cd 40 08 bd 24 e3 db 3b 2b ae f2 3b 42 91 b9 ba
       -0.033264924 0.006710427 0.0074060163 -0.001415767
0002b0 36 ef 5b bc f3 bd 1a bd 09 2b 98 3c 7b 05 eb 3b
       -0.013423732 -0.037778806 0.018575208 0.007172284
0002c0 29 64 a7 3c d8 04 23 bc 33 4f 18 bd df c3 27 bd
       0.020433502 -0.009949885 -0.037184905 -0.04095828
0002d0 d2 48 21 3c a8 a1 01 bd 4e 24 9d bc a6 a9 3a 3b
       0.009844022 -0.031648308 -0.01918235 0.0028482466
0002e0 ba 37 1e bd 27 0b b1 39 d3 18 8d 3c 0c 58 a8 bb
       -0.038627364 0.0003376838 0.017223751 -0.005137449
0002f0 52 ab 38 bc 15 5c a0 3c 30 f3 5b bc 3d 48 1a 3c
       -0.011271315 0.019575158 -0.01342468 0.009416637
000300 97 7a a8 3c 5d 75 d3 bc 1c f5 96 3c a3 9d 15 3c
       0.020566268 -0.0258128 0.018427424 0.009131822
000310 b4 ad 9e 3c a3 45 e4 bc 6a 49 07 3b 99 0d 0e bd
       0.019369937 -0.027865237 0.0020643123 -0.034680936

1.fc2.weight f4 [10, 200]
000000 6f 33 89 3c b4 56 9e 3b 23 b5 21 bb 67 4d 01 bb
       0.016748158 0.004832113 -0.0024674616 -0.0019729973
000010 90 53 5c 3a e8 cc 47 bc 74 64 82 bc c2 6c 56 3b
       0.0008404786 -0.01219485 -0.01591704 0.0032718633
000020 bc 0f 0d b9 14 f1 93 ba f1 b2 c7 3a 31 e5 81 bc
       -0.0001345267 -0.0011287057 0.0015235824 -0.015856357
000030 b7 d2 02 bc c0 6f 11 bb 93 1e 76 3b 10 f1 96 bb
       -0.007984809 -0.0022191852 0.0037554845 -0.0046063736
000040 54 73 b4 3a 3c 19 51 bc 6e ab 95 3c b7 5b bb bb
       0.0013767281 -0.012762364 0.01827022 -0.0057177204
000050 d4 b1 54 3b 14 88 ac bb 45 1c 3c 3c 5c 5e 93 bb
       0.0032454627 -0.005265245 0.011481349 -0.0044973325
000060 97 7e 20 bc 47 a7 30 3c 3e 43 59 bb 65 38 14 bc
       -0.009795806 0.0107820695 -0.0033151652 -0.009046649
000070 23 5e 21 bc 89 d0 ed bb 82 5b 8b b9 95 ac 40 bc
       -0.009849104 -0.0072575253 -0.00026580325 -0.011759897
000080 36 25 01 bc d3 9b 02 3d ae 0f 90 3c ba 47 1d bc
       -0.007882407 0.031886887 0.017585602 -0.0095996205
000090 1b 37 a0 3c 7d ea a3 bb e0 f4 a5 3b 41 93 46 3c
       0.019557526 -0.0050023184 0.0050645918 0.012120069
0000a0 89 20 22 3c 43 2e a6 bc 4f a0 5e 3c 0a e1 99 3b
       0.009895452 -0.020285731 0.013588025 0.004696016
0000b0 4d b1 c3 3c 26 7a 4e bc ad 80 a5 bb 9d dc 1b bb
       0.023888255 -0.012602365 -0.0050507397 -0.0023782619
0000c0 06 17 8a bc 72 ae 52 bc 6c 06 02 ba db a2 a7 3c
       -0.016856682 -0.012858974 -0.00049600634 0.020463398
0000d0 9f 55 69 bb 6f e6 69 3c 53 08 b2 3c 3f 93 f6 3c
       -0.0035604013 0.014276131 0.021732485 0.03009951
0000e0 ee 61 57 bc 41 75 bc bb b5 ad a9 ba fd d3 92 bc
       -0.013145907 -0.0057512824 -0.0012945445 -0.01792335
0000f0 50 3f a3 bb 19 e0 83 39 5d 69 23 bc d0 10 9c bb
       -0.0049819127 0.00025153233 -0.009973851 -0.0047627464
000100 d6 e0 88 3c 82 b6 9c b8 fe b7 00 3c 8c 67 b8 3b
       0.016708773 -7.4726544e-05 0.007856367 0.005627578
000110 11 c1 a3 3b 8c c4 07 3c 5f 60 64 bb 0e ca 0f 3a
       0.0049973805 0.0082866065 -0.003484748 0.00054851256
000120 27 ff a4 3c 17 99 ab 3c d8 f7 3c bb 1b c9 1e 3c
       0.020141197 0.020947022 -0.002883425 0.009691502
000130 5f 58 7a 39 12 2e ac bc 57 74 a8 3a d6 49 9d 3c
       0.00023874779 -0.021018062 0.0012852055 0.019200247
000140 4a d8 f6 bb 85 22 88 3b e7 e0 60 3b 2a 93 a6 3b
       -0.007533108 0.0041545057 0.003431374 0.0050834613
000150 81 bf 8f bc 1a ba 68 3c 44 b8 51 3c 85 d1 1e 3b
       -0.01754737 0.014204526 0.01280028 0.002423377
000160 7c 4b 0c bc 58 bb 00 bc 44 ef 94 bb 2a 49 82 3c
       -0.008562919 -0.007857166 -0.0045451242 0.015904028
000170 7b 68 a1 3c 29 25 93 3c a9 d8 56 bc de 8e a1 3c
       0.01970314 0.017962055 -0.013113179 0.019721445
000180 e7 6d c7 3b 53 77 fe bc 98 0d d2 3a 8e 33 47 3c
       0.0060860994 -0.031062758 0.001602578 0.012158288
000190 f7 5b 5d bc bf 7e cb 3a 8f 10 a0 bb 5f 97 71 bb
       -0.013510696 0.0015525444 -0.0048847864 -0.0036863906
0001a0 a5 3b f1 3c 12 8b 94 bb 3e e5 b9 3c 7a 09 aa bc
       0.029447386 -0.00453318 0.022692319 -0.020756472
0001b0 81 d5 f5 3a 05 ce a4 bc 8f 87 8c ba 84 72 b9 3a
       0.0018755646 -0.020117769 -0.0010721552 0.0014148508
0001c0 50 6c 52 3c 5f 74 f8 bc 80 21 3d 3c 70 2a 47 ba
       0.0128432065 -0.030328928 0.011543632 -0.0007597571
0001d0 e3 78 9a 3b 95 94 a6 3c 0a 68 ba bb 41 b3 96 3b
       0.004714118 0.020334521 -0.005688672 0.0045990054
0001e0 41 c5 59 39 6f 48 bc bb 2b 39 8e bc e2 8a 84 bb
       0.00020768215 -0.0057459394 -0.017361244 -0.0040448764
0001f0 de b9 d2 ba be 2c 5a 3c bd 04 32 3b 30 ed 90 bc
       -0.0016077121 0.013316331 0.0027163469 -0.017691225
000200 06 e5 91 bc 6b 93 00 3b 5b 11 c2 bb d6 39 c3 bc
       -0.017809402 0.0019619118 -0.005922479 -0.02383129
000210 f3 1c 03 bc 16 50 84 b9 ce af 92 3b 62 92 76 3a
       -0.0080025075 -0.0002523667 0.004476524 0.0009405968
000220 3b fb f7 3b 35 1f e8 3c 89 02 8e 3a c0 40 9f 3a
       0.007567791 0.028335193 0.0010834496 0.0012150034
000230 fb 9c d1 3c 93 eb 4c 39 37 f0 9e 3c 40 31 8c bb
       0.02558755 0.00019542714 0.019401653 -0.004278332
000240 44 d3 8e 3c e2 74 42 3c 22 25 61 3c 83 97 aa bb
       0.017434724 0.011868687 0.013741763 -0.00520605
000250 83 d2 66 3c b9 c2 52 bc 48 07 7f bc 09 93 41 bc
       0.014088276 -0.012863808 -0.015565701 -0.011814841
000260 09 2e fc bc 6d 0b dc bc cb d5 d3 3b be 22 3a bb
       -0.03078367 -0.026860917 0.006464695 -0.0028402056
000270 b2 7a 1c 3c b4 96 b0 bc 63 46 de 3b 3a 2e 3e ba
       0.009550737 -0.021556236 0.006783293 -0.0007254813
000280 3a cd c9 3c 5c aa a2 3c f5 ca 0f 3b a7 be 29 bc
       0.024633992 0.019856624 0.002194104 -0.0103603965
000290 ee 67 91 bc f7 e6 f7 3b f8 5b 6b 3c ac 4c 6a bc
       -0.017749753 0.007565375 0.014365189 -0.014300507
0002a0 ca cd 92 bb 24 d6 81 bc 0c 46 c7 bc 28 57 84 bb
       -0.0044800984 -0.01584918 -0.024325393 -0.00403871
0002b0 b6 3e cb 3c f2 c1 91 3c f9 93 cb 3b eb 45 cd bc
       0.024810176 0.017792676 0.006212708 -0.025057754
0002c0 76 31 85 3c 0e d0 12 b7 1b 9c e0 bc c8 82 fc ba
       0.016258936 -8.75072e-06 -0.027418187 -0.001926505
0002d0 b4 df 77 3b 34 cf 2f 3c 38 4d dd 39 0f 49 5e 3c
       0.0037822546 0.010730553 0.00042209937 0.013567223
0002e0 97 3e 46 3c c8 1f 36 3c 3b 77 08 bc 4b 9c 9b bc
       0.0120998835 0.011115976 -0.008329208 -0.018995425
0002f0 97 44 fa 3b 06 d1 b0 bb b4 43 23 3c b2 0a 7d 3c
       0.007637571 -0.0053960113 0.009964872 0.0154444445
000300 22 0c f6 bb c7 4d 3a bc d3 21 22 bc 1a 10 f6 3b
       -0.0075087706 -0.011371083 -0.00989576 0.0075092437
000310 09 24 a4 3b 4b bb 14 3d b3 68 1e bc e2 2d 68 3c
       0.0050091785 0.03631143 -0.009668517 0.014171096
000320 41 3b 89 3c e7 b6 9e 3b f7 99 21 bb 4c f2 04 bb
       0.016751887 0.004843581 -0.002465842 -0.0020286022
000330 6e 3a 6a 3a c6 d0 47 bc cb 6c 82 bc ff 2d 56 3b
       0.00089350983 -0.012195772 -0.015921017 0.0032681224
000340 af a5 08 b9 c6 1f 92 ba aa 01 c9 3a 7e 4e 82 bc
       -0.00013031693 -0.0011148385 0.0015335579 -0.015906569
000350 dc 9f 02 bc 73 5b 12 bb c3 e0 74 3b 76 72 96 bb
       -0.007972684 -0.002233234 0.0037365414 -0.0045912815
000360 8f 13 b4 3a c3 f6 50 bc 5b be 95 3c 63 b6 ba bb
       0.0013738739 -0.012754145 0.018279245 -0.0056980117
000370 14 4c 52 3b a8 df a9 bb 5c 54 3c 3c 81 e6 92 bb
       0.0032088803 -0.0051841326 0.011494722 -0.0044830446
000380 da 8c 20 bc 39 b5 30 3c 0c 02 5c bb bd 3a 16 bc
       -0.009799207 0.010785394 -0.0033570556 -0.009169278
000390 e4 b8 21 bc 7e 95 ed bb 11 07 8a b9 61 f4 40 bc
       -0.0098707415 -0.007250487 -0.00026326676 -0.0117770145
0003a0 d6 40 02 bc 7b 8a 02 3d 89 02 90 3c b3 62 1d bc
       -0.007950028 0.031870347 0.017579334 -0.009606051
0003b0 8f 84 a1 3c f4 4b 9f bb 60 6f a5 3b 47 e8 46 3c
       0.01971653 -0.0048613492 0.0050486773 0.01214034
0003c0 1b 20 22 3c 79 61 a6 bc ac 56 5e 3c a0 df 99 3b
       0.00989535 -0.02031015 0.013570469 0.0046958476
0003d0 64 c6 c3 3c d6 96 4e bc 2b 9d a5 bb 63 93 1a bb
       0.023898311 -0.012609204 -0.0050541363 -0.0023586384
0003e0 34 40 8a bc ca be 52 bc 03 86 00 ba 07 7b a7 3c
       -0.016876318 -0.0128628705 -0.0004902782 0.020444406
0003f0 57 0b 6c bb cb d8 68 3c fa 0a b2 3c 75 e5 f2 3c
       -0.0036017501 0.014211844 0.02173375 0.02965043

1.fc2.bias f4 [10]
000000 5f 50 db bc 71 98 90 3d a6 4b 18 bd df 54 89 bc
       -0.026771722 0.07060326 -0.03718152 -0.016764103
000010 86 32 54 bd fb 23 c5 bd a1 b4 31 bd b8 bf 1b bb
       -0.051805995 -0.09626003 -0.04338515 -0.0023765396
000020 41 93 20 bd 91 17 27 bd
       -0.039202932 -0.04079396
