HW1/weights.pt (torch, 637968 bytes, 4 tensors)

1.fc.weight f4 [200, 784]
00000000: 7ce3 9fbc be4c 93bc 2635 7d3c 2f4d ca3b
00000010: f76e 843c 1bd7 31bc 09e3 a23c 4332 9d3c
00000020: f127 f8bc 212d f9bc 91c9 01bd 6148 e1bc
00000030: a54a c83c 7184 fdbc 16f2 0cbd 3c53 05bd
00000040: 2837 6dbc 68d2 20bc d5df 453a 81f7 ae3c
00000050: 2a3f 003c 9f1a ebbb 4993 1fbd 857a 03bc
00000060: 7efa 86bc a254 233c 929a 3a3c ac46 fa3c
00000070: 708a e4ba da03 48bc d4bb c33a 6112 4a3c
00000080: b72f a63b 9817 04bd d209 e03c b6ea a3bc
00000090: 2220 aabc 7900 10bd 19d7 743c af67 cbbc
000000a0: 08be 933a fc1b 393c 5508 8abc 78ae e9bb
000000b0: 2363 6a3b 6ac6 a2bb 1262 c6bc 952f 6fbc
000000c0: a625 fb3c 15d5 05bd 4494 ce3c 173c a4bc
000000d0: 130e b9bc affb 953c 4eba 483c 36fe 033c
000000e0: ac82 41bc 1de0 23bc ef30 b03c 68d5 82bb
000000f0: 3f25 16bd f541 02bd bde3 f339 0676 973c
00000100: 560d 263c e42e f43b c035 33bc 073c ed3c
00000110: e766 863b bdbb bf3c 8041 ecbb 2cfb 2bbc
00000120: 6883 76bc 13b2 10bd 535d 223c dd09 60bc
00000130: 343c 1bbc 7b47 00bd 5903 1e3c ae05 adbb
00000140: a608 e23c ed28 b5bc 0d30 b13c 346d 5c3c
00000150: aee1 ce3b 11c0 963c caa8 48ba 6eb5 9ebc
00000160: b997 82bc 5421 cf39 6e62 09bd 3937 5539
00000170: a211 10bd 5157 a53c 34ba e33c 109f ce3a
00000180: ffd1 10bd 0831 a93c 5187 ccbc d16f 053c
00000190: 3d24 e63c 4f1a 10bd 5a8d b7bc 0057 0dbd
000001a0: 992c 97bb 707f aebc 052e b93c cefa 92bc
000001b0: b86b 20bd 47c4 2dbc ac87 b2bc 3dbd 8d3c
000001c0: 058a 543c 7827 9a3c 2157 fa3b 21d6 e1ba
000001d0: ded9 8dba b32b 01bd 4950 d0bb b34e 693c
000001e0: 4f6b ce39 4b05 abbc f357 15bd c1f8 ba3c
000001f0: fd2b 273c 0361 463c b80b 55bc 338a 683c
00000200: 64a6 4bbc a1b7 dabc 9976 2eba 2ded 443c
00000210: 5bdb f0bc b888 fcbb 9a17 11bb 89e3 8cbc
00000220: 4eb3 ce3c 952d 1cbb 1b8a 13bd fd4b 973c
00000230: 22ed 9c39 b54e 94bb be2f ebbc c5d4 dfbc
00000240: 1159 17bd f2d1 823c 2a28 01bd a7c9 16bd
00000250: 9dff 91b8 6873 e2bc 5ab3 ab39 d2c4 dd3b
00000260: 9579 a8bc 9bac fb3c 3a96 033d 5a8c 023c
00000270: 0d25 273c 8253 e9bc 56f1 473c 8e78 643c
00000280: 1a59 9b3c b5b2 6a3a 5073 febb 255a 19bd
00000290: 195e 873c ee7c 9b3c 5a1b 94bc 5552 d7bc
000002a0: 6939 da3c c589 823c df5b 21bd ff15 bfbc
000002b0: cbbe e1bc 3e77 06bd e258 5d3c 77e2 aabc
000002c0: a2ee f33c 16c7 c23a 5186 283b 13d0 ea3c
000002d0: f8d6 b63c cad4 063d 0a27 52bb 5621 4c3d
000002e0: 72e3 a4bb e872 ba3b 2e93 e03c 08e8 cdbc
000002f0: 1378 873b ac04 d1bc d08f ae3c 85ba 0f3c
00000300: 160b 073d 21c0 9a3c d566 d9bb c392 fcbc
00000310: 1bee 72bc eb85 1fbd f6c9 003c a25a 4d3b
00000320: 35a0 32ba ee3c a53c 6333 103c 1b0b 55bc
00000330: fed0 bc3a ade0 bd3c 721a 1c3d 74ce 833c
00000340: aba6 213d c6c1 e63b 5871 7e3d 67f0 b43c
00000350: 2deb 683d 72a8 613d d217 493c fc26 21bb
00000360: 2a73 4f3d 54d1 8abb 2d7f f33c 0a4e 4ebc
00000370: b75b 503c 5bf9 f53c 3220 d3bc cefc 7cbc
00000380: 2547 05bd aa86 ef3c ca79 0bbd 84bf e03c
00000390: 4797 d73c bc1f 1ebd e58a 6dbc a4c7 c8bc
000003a0: 4831 84bc b246 b23c f3f1 d83b 325e 463d
000003b0: 1f12 33bc dbd1 023d 48df f73c ed93 7b3c
000003c0: c48e 413c 3ac6 c43a 336c 0e3c b3e5 013c
000003d0: 6a89 793b ce50 023d d826 dd3c 0dc2 bcbb
000003e0: 7390 4b3b e06c 053d 908b 053c e580 cfbb
000003f0: d73b 9e3b 8c49 f1bb cbba f63c 325a a43c
-0.019517653 -0.01798093 0.015454566 0.006173752 0.016166193 -0.010854508 0.01988365 0.019189006
-0.030292483 -0.030417027 -0.03168637 -0.027500333 0.024449656 -0.030946942 -0.03441056 -0.03255008
-0.014478482 -0.00981579 0.0007548307 0.021358253 0.0078275595 -0.0071748043 -0.03895882 -0.008024816
-0.016476866 0.0099689085 0.0113893915 0.030551277 -0.0017436277 -0.0122079495 0.0014933296 0.012333483
0.005071606 -0.032249063 0.027348433 -0.02000938 -0.020767275 -0.0351567 0.014943861 -0.024829714
0.0011271844 0.011298176 -0.016849676 -0.007131394 0.0035764656 -0.0049675005 -0.024216685 -0.014598747
0.0306576 -0.032673914 0.025217183 -0.020048184 -0.022589719 0.018308489 0.01225145 0.008056214
-0.01181094 -0.010002163 0.021507708 -0.003992725 -0.036656614 -0.031801183 0.0004651825 0.018488895
0.0101350155 0.007451879 -0.010938108 0.028959287 0.0041016224 0.02340495 -0.0072099566 -0.010496896
-0.015045978 -0.035326075 0.009909946 -0.013674227 -0.009474803 -0.03131817 0.009644353 -0.005280218
0.027592015 -0.022114241 0.021629358 0.01345377 0.006313524 0.018402131 -0.0007654546 -0.019373622
-0.015941488 0.00039506948 -0.033541135 0.00020333835 -0.035173066 0.020183237 0.02779875 0.0015763957
-0.035356518 0.020653263 -0.024966868 0.008144335 0.028093452 -0.03518134 -0.022406269 -0.034506798
-0.0046134708 -0.021301001 0.022604952 -0.017941859 -0.03916523 -0.010605878 -0.021793209 0.01730215
0.01297236 0.018817648 0.007639781 -0.0017229953 -0.0010822376 -0.031535815 -0.006357227 0.014239955
0.00039371333 -0.020876547 -0.036460828 0.022823693 0.010203359 0.01210809 -0.013003282 0.0141931055
-0.012429807 -0.02669889 -0.00066552457 0.012019438 -0.029401472 -0.007706728 -0.0022139312 -0.017198341
0.025231984 -0.002383088 -0.03602038 0.018468851 0.00029931316 -0.004525984 -0.028709289 -0.027323136
-0.036950175 0.01596925 -0.031532444 -0.036813404 -6.9617505e-05 -0.02764292 0.0003274929 0.0067678476
-0.020565787 0.030721953 0.03212569 0.007968033 0.010201705 -0.028482202 0.012203535 0.013944758
0.018963385 0.0008953021 -0.007765211 -0.037439484 0.016524361 0.01898047 -0.018079448 -0.026284376
0.026638703 0.015934834 -0.039394256 -0.023325918 -0.027556797 -0.032828562 0.013509961 -0.02085994
0.029776875 0.0014860358 0.0025714824 0.02866367 0.022319302 0.032917775 -0.0032066726 0.04983648
-0.0050319964 0.0056899674 0.02741393 -0.025135055 0.004134187 -0.025514923 0.02130881 0.008772497
0.032969557 0.018890442 -0.006634573 -0.0308317 -0.014827277 -0.038946074 0.007860651 0.003133454
-0.0006814034 0.020170655 0.008801314 -0.013003136 0.0014405546 0.023178423 0.038111158 0.016089655
0.039465588 0.0070421426 0.06211981 0.022087289 0.056864906 0.055092283 0.012273746 -0.0024589887
0.05064694 -0.0042363796 0.029723728 -0.012591848 0.012717179 0.030026129 -0.025772188 -0.015441133
-0.03253855 0.029239018 -0.034051694 0.027435072 0.026317252 -0.038604483 -0.014498447 -0.024509259
-0.01613678 0.021762226 0.0066206395 0.048429675 -0.010929613 0.031938415 0.030257836 0.0153550925
0.011813823 0.0015012689 0.008692789 0.0079283 0.003807629 0.031815343 0.026996061 -0.0057604373
0.003106144 0.032574534 0.00815095 -0.006332504 0.004828911 -0.007363504 0.030118367 0.02006254

1.fc.bias f4 [200]
00000000: 9cb6 d23c c9ba 013d 5c50 e13c aee8 a33c
00000010: dbad febc 261a 85bc a0fd f9bc e92f b73c
00000020: f960 2a3b 29a0 fc3b 9ea2 ae3c 10b2 a0bc
00000030: eae4 d33c d678 e6bb 4cbf 8bbb 8141 8ebc
00000040: 9939 95bc 507d a4bc 933e 8bbb 066b cdbc
00000050: bc4c ac3c b244 e23b d96f 153c 39c1 9c3c
00000060: 9501 003d 61e9 9ebc cddf 383c 7bf9 4dbb
00000070: 1192 7dbc 0223 2cbc 7a68 adbc c8d3 1d3d
00000080: e632 0bbd 4d2f 42bc 3056 81bc 099b f3bc
00000090: dfa3 e6bc 268a 053d 4091 c6bb ac90 0c3d
000000a0: 2193 ff3c 2613 003d c2b6 a5bb d274 9d3c
000000b0: d372 d33c a3f6 b6bc 742c 0dbd 0733 9a3c
000000c0: bcb8 09ba 573c f03b 23fc 88bb c006 a23b
000000d0: ee80 7cbc ef4f ee3c 0164 e23a c090 01bd
000000e0: a321 b03a 0ad1 0a3d 86cb fd3c e8af de3a
000000f0: ec7a ddbc 4e73 193d 0c21 a0bc 4bde 1b3d
00000100: b5fa b53a 67cb e23c 1ebe dc3c b60c 2e3c
00000110: 7150 b1ba e1ea 59bc ca46 24bc fcea 0f3d
00000120: 889a 8bbc 31d2 e6bc 3a6c 3eba 8684 b93b
00000130: b156 1bbc 3e78 98bc 72eb fa3c ed8f 013b
00000140: b3d9 003c 974d 673c 8828 223c df72 edbc
00000150: 7223 afbc 2c0b 8d3a e442 343c f308 5f3c
00000160: 59f5 b8bb e680 133d 6c88 caba 76ec b33c
00000170: c1c3 b3b9 3b0c 04bd 6206 07bc e904 d83c
00000180: 29f0 6fbc 3473 073d f695 debc 945b 5dbc
00000190: d001 8abc 0f1c 443b c69e ce3b f6d3 f5bb
000001a0: c9c2 8fba 138f 0d3b 6b70 0a3d f2b0 9b3c
000001b0: 0cd3 943c fb6e aabc e17a 713c 641d 163b
000001c0: 4cb7 97bc bcf3 4ebb 6438 373c c274 01bd
000001d0: 356d 09bd c671 3939 2bc1 84bc 7e11 2a3c
000001e0: 0e0c cfbc dc8c d0bc 95e5 283c 38d3 bfbc
000001f0: e2bf c7bb 8c13 f43c bdb2 943c a3b2 b63c
00000200: 6043 5fbc b5c3 ebbc 0d20 fbbc 7567 003d
00000210: 70fc 58bc 6e71 af3c a0b9 c23c 986e 4bbc
00000220: b9be 82bb 0253 13bb abd4 dcbb 39eb 513b
00000230: 03f9 7bbc 12ad 413c 13e1 cebb 924e 343d
00000240: 9641 c13c fad9 ac3b c7f3 f73c 61c1 ed3b
00000250: 44a2 4dbc 861a 65bc 333c 1f3d 8c40 d1bc
00000260: d134 9a39 beb0 6c3c 3d7b e83b a548 62ba
00000270: c42c bb3c 4fd0 a03b bae1 f93b 07b7 a8bc
00000280: f3d7 4fbc cc18 2f3c c54c 063d 06ae 313b
00000290: b255 da3c 3cd5 60bc 84ca 1a3d 643a f4bc
000002a0: da17 88ba bc3b efbc aace 573c 1e62 d3bb
000002b0: ccf8 b93b 6a05 1b3d 2029 1e3d 3802 61bb
000002c0: 6f2b e5bc f860 cabb e49f 97bc c81f 8d3c
000002d0: 67f0 113c 2c76 123d 9375 8abc 9bdf b1bc
000002e0: e92c 62bc 2802 623b e7e2 b3bc 0de1 f73c
000002f0: 6a5a 97bc 8213 8abc 6c89 37bc 0200 a33c
00000300: 9d2b e2bc 9e7f cdbc 31a0 793c ced2 bf3c
00000310: 3100 a4bb a232 33bc 1f32 7a3c 426c a4bc
0.02572184 0.031672273 0.027504139 0.020008411 -0.03108876 -0.01624782 -0.030516446 0.022361713
0.0025997742 0.0077095223 0.021317776 -0.019616157 0.02586599 -0.0070334477 -0.0042647477 -0.01736522
-0.018215941 -0.020079285 -0.004249403 -0.025075447 0.021032684 0.006905162 0.009120905 0.019135104
0.03125151 -0.019398393 0.011283827 -0.003142922 -0.0154767195 -0.010506393 -0.021167982 0.03853205
-0.033984087 -0.011852098 -0.015788168 -0.029737012 -0.028154312 0.03260245 -0.0060597956 0.034317657
0.031198086 0.03126826 -0.005057187 0.019220743 0.025811588 -0.022334402 -0.034466222 0.01882316
-0.0005253663 0.007331412 -0.0041804477 0.0049446523 -0.015411599 0.02909085 0.0017272235 -0.031632185
0.0013437759 0.03389076 0.030980837 0.001698968 -0.027036153 0.03746348 -0.019547008 0.038053792
0.0013883921 0.02768488 0.026946124 0.010623148 -0.0013528002 -0.013300628 -0.010026643 0.035136208
-0.01704146 -0.028176399 -0.0007264052 0.00566155 -0.009481118 -0.018612023 0.030629847 0.0019769624
0.007864404 0.01411762 0.009897359 -0.028985439 -0.021379206 0.0010760776 0.011002276 0.0136129735
-0.005644482 0.0360116 -0.0015452034 0.02196334 -0.0003428739 -0.032238226 -0.008241268 0.026369529
-0.014644661 0.03306885 -0.027171116 -0.013510603 -0.016846567 0.002992395 0.0063055484 -0.0075020744
-0.0010968085 0.0021600171 0.033798616 0.019005273 0.018167041 -0.020804873 0.014738769 0.0022905702
-0.01852002 -0.0031578382 0.011182878 -0.03160549 -0.033551414 0.00017685359 -0.01620539 0.010380147
-0.025274303 -0.025457792 0.010308643 -0.023416147 -0.0060958723 0.029794477 0.018151635 0.022301978
-0.013626903 -0.028779844 -0.030654931 0.031348664 -0.01324378 0.021416392 0.023770154 -0.012416504
-0.003990021 -0.0022479896 -0.006739219 0.0032031073 -0.015379193 0.011821048 -0.006313452 0.044020243
0.023590844 0.0052750083 0.03026761 0.0072557186 -0.012550894 -0.013983374 0.03887577 -0.025543474
0.0002941252 0.0144464355 0.0070947693 -0.00086320407 0.022848494 0.004907645 0.0076257857 -0.020595087
-0.012685764 0.010687064 0.032788057 0.0027111783 0.02665219 -0.013722714 0.03779079 -0.029813
-0.0010383085 -0.029203288 0.013171831 -0.0064509055 0.005675411 0.03784696 0.03861344 -0.0034333598
-0.027974812 -0.0061761104 -0.018508859 0.017227069 0.008907414 0.03575723 -0.016901767 -0.021713069
-0.013804653 0.0034486149 -0.021958781 0.03025868 -0.01847573 -0.016855005 -0.0112021975 0.019897465
-0.027608687 -0.025085267 0.0152359465 0.02341595 -0.0050049056 -0.010937365 0.015270739 -0.020071153

1.fc2.weight f4 [10, 200]
00000000: b345 663c d2bc 26bd 575a c93c 3e2b fc3d
00000010: 47a2 0bbd 2d95 58bd 1a0a 013e 692c 47bd
00000020: 0fb6 19be b4fc 78bd b237 e03c 5cae b0bc
00000030: 620e 383e 865b 02be 2c67 bdbd 64a3 023d
00000040: 36a4 9bbd 019a 0d3d 143f 3d3c 49b9 8e3d
00000050: 0c76 b5bd e02f 2ebd c978 9a3d 45f3 80bb
00000060: 33d0 7ebd 358a c0bd 995e 6abb 5035 cbba
00000070: b8ac a83c 9b6b c4bc d7c4 c73c 6505 5fbc
00000080: a818 f7bc b533 8b3d f2be 013d 08c2 79bd
00000090: c124 61ba 0203 bf3c 7dfe 883c 70c1 d3bd
000000a0: 87ba c0bd 45d6 abbd 68be c5bd b7b8 fabc
000000b0: 72ef ed3d 0b71 f83b 6e6d 39bd 751e 773d
000000c0: c745 dd3c 1fdd a7bc c16e 91bd 0271 103e
000000d0: efba 863d d8ac 133d fd4a fbbc aedd 8f3d
000000e0: 5504 293d 9e46 d03d 7e1c 06be 92ec 81bd
000000f0: 76ef c33d 34a8 ae3c dbc7 1abc 6fe1 a5bd
00000100: d711 3e3d 8952 2cbd a978 083e 4862 56bc
00000110: 61fb 97bd 4acd e1bd 317b bd3b c7c2 e3bc
00000120: c39b 9d3c baf0 993d 7b66 b7ba 3d44 b53c
00000130: b526 6aba a3ac 623d 0ac5 b03c dade d03b
00000140: ecd1 93bd 94d4 05be d76f d33d e477 91bd
00000150: 344b 113b 03ff 06be 6715 5fbd 8ce1 ef3d
00000160: 488e 46bc 6e93 fcbc b404 183e a0dc 56bd
00000170: ed63 b23d fe7e 413d aef5 8fbc 7f34 853c
00000180: 0d57 023d 17a2 acbd 2ab6 3dbe b792 f8bc
00000190: 3468 353d 209b 963d b3a5 7fbd 4ffa f33d
000001a0: fee9 77bd c62d 933d 9d15 10bc 8bf6 c93d
000001b0: 6bea a7bd f1f7 00be 9b49 21bd ef3e d63d
000001c0: 7aba 8ebd fdc8 70bd 9efe b7bd 4721 103d
000001d0: 3e0c 003d 851e 82ba 7400 663d 7867 1a3d
000001e0: 0653 aabd 9ee1 d23d cc5a 83bd ce61 dfbd
000001f0: e88e 863d 5ac2 753d fed1 a33d 1025 63bd
00000200: c7b1 d0bd 558a aa3d e80d c2bc 9d43 6dbd
00000210: 11c1 9abd 79e8 1d3d 66e4 15bd 7ceb 35bb
00000220: 96c3 b63d e778 85bd ac02 86bd b864 373d
00000230: 30cb b8bd 96ba 7cbd 1c3c 2c3d 54e9 013e
00000240: 583f 453c bad6 00be 2ef5 d2bd f730 223d
00000250: 7351 703d 8021 8f3b c665 b93c 939a babd
00000260: 87da c03a 5143 393d 5186 693c f3a2 9fbc
00000270: 2348 06be 7779 2dbd ea96 94bd d553 8cbb
00000280: 8b41 8cbd 3d71 33bd 19b5 6bbd f78a 3f3e
00000290: 51d3 d33d b2b0 9bbc 66aa 2d3e 7664 9abd
000002a0: db9f c9ba b4fa 58bd 32a2 f33c 3e31 f23d
000002b0: bcac fbbc 9d6c b53d b459 493d 2f29 c73c
000002c0: a61b 08bd 5968 14be 2444 ed3d f1c0 75bb
000002d0: df88 263d 775e c43d df53 6fbc fb78 32bd
000002e0: 0408 50bd f211 883d 680b c3bc 7cdd 053d
000002f0: d51e 14bd b627 763d c183 71bd 3c0f 87bd
00000300: dc26 4ebd f866 1c3d 8043 74bd 2353 afbc
00000310: 922d 5fbd 6c77 6d3d 7899 593c e5e2 093e
00000320: 9a0c 84bd 150c f23c 041f 8d3d 9e3c e5bd
00000330: f0e7 493d 59d2 893d 6ced d7bd f0b6 bb3d
00000340: 9662 f03d b8a0 debc 6a38 bdbd a086 bcbd
00000350: 4996 05be 032b b73d 5a8a 043e 736a 05bd
00000360: 359a 95bd 2c6d 723c 52a8 bfbd ac2b ee3c
00000370: c662 153c 3c42 183d bd2d 8bbd 2c27 1e3d
00000380: 5561 a8bd 4d43 1f3d db28 70bd 1b67 883a
00000390: 86fa 9ebd ec68 123d d5bf 84bd 0945 b2bd
000003a0: 5b06 02bd 3153 2abd 538c b9bd 38af 56bd
000003b0: 0183 4e3b 2f4a d83c 80c4 3fbd 2ea9 cd3b
000003c0: 4ff1 ea3c 0a6e 9ebd 1d3a 04bc d760 ed3c
000003d0: 2800 02be a427 ac3c ca8a 843c e26a 3d3d
000003e0: 1740 333d 1c31 b9bc 9383 d538 49d7 c8bd
000003f0: 1a14 e8bd f6f0 98bd 8526 9bbd 5fde 903d
0.0140547035 -0.040707417 0.02457921 0.12312935 -0.034090307 -0.05287664 0.1260151 -0.048626337
-0.15010856 -0.06078787 0.027370308 -0.021567516 0.17974237 -0.12730226 -0.09248194 0.031894103
-0.0759968 0.034570698 0.0115506835 0.06968934 -0.08860406 -0.042526126 0.07542569 -0.00393525
-0.062210273 -0.09401361 -0.003576195 -0.0015503559 0.020590171 -0.023977092 0.024385853 -0.013612126
-0.030163124 0.06796972 0.03167624 -0.06097606 -0.00085885456 0.023316864 0.016722912 -0.1033963
-0.09410577 -0.08390478 -0.09655458 -0.030605657 0.11617936 0.007581835 -0.045270376 0.06033178
0.027010811 -0.020491181 -0.07101203 0.14105609 0.065786235 0.03605351 -0.030675406 0.07024704
0.041263897 0.10169719 -0.13096806 -0.0634395 0.09567158 0.02132044 -0.009447063 -0.08099639
0.046403732 -0.0420709 0.13327278 -0.0130849555 -0.074209936 -0.11025484 0.005782508 -0.027802838
0.019239312 0.07516618 -0.0013992334 0.022127265 -0.00089321594 0.05534042 0.02157833 0.006374222
-0.07217774 -0.13069373 0.10324066 -0.071029454 0.0022170069 -0.13183217 -0.05446377 0.117129415
-0.012118883 -0.030832019 0.14845544 -0.0524565 0.087104656 0.04724025 -0.017573204 0.016260384
0.0318213 -0.08429354 -0.18526521 -0.030343397 0.04428883 0.073538065 -0.062413882 0.11912977
-0.060525887 0.07186465 -0.0087942155 0.098614775 -0.081990086 -0.12594582 -0.039376836 0.104612224
-0.06969161 -0.058785427 -0.08984111 0.035187986 0.031261675 -0.0009927308 0.056152776 0.03769633
-0.08316617 0.10296939 -0.064138025 -0.10907327 0.06570226 0.0599998 0.07999037 -0.055455267
-0.10190158 0.08327166 -0.023688272 -0.05792581 -0.07556356 0.03855178 -0.03659477 -0.0027758768
0.08924024 -0.06517201 -0.06543478 0.044773787 -0.0902313 -0.06170138 0.042049512 0.12686664
0.012039028 -0.12581912 -0.103006706 0.039597478 0.058671426 0.004368007 0.022631537 -0.09111514
0.0014713564 0.045230214 0.014253215 -0.01948688 -0.13113455 -0.042352166 -0.07255347 -0.0042824545
-0.06848439 -0.043809164 -0.057545755 0.18705355 0.1034304 -0.019005153 0.16959533 -0.07538693
-0.0015382724 -0.052973464 0.029740427 0.118257985 -0.030722015 0.08858607 0.049157813 0.02431163
-0.033229493 -0.1449293 0.115852624 -0.0037499035 0.040657874 0.0958833 -0.014607399 -0.043572407
-0.050788894 0.06644048 -0.02380915 0.032681927 -0.036162216 0.060096465 -0.05896354 -0.065947026
-0.050330028 0.038184136 -0.059634686 -0.021401947 -0.05448682 0.057975218 0.013281219 0.1346546
-0.06447716 0.029546777 0.068906814 -0.111932024 0.04929346 0.06729574 -0.105433315 0.09165752
0.11737554 -0.027176246 -0.09239276 -0.09205365 -0.1304561 0.08943751 0.12943402 -0.03257222
-0.07304803 0.014796536 -0.093582764 0.029073559 0.009117788 0.03717254 -0.06795833 0.038611576
-0.082216896 0.038882542 -0.058632713 0.0010406704 -0.07762627 0.035744593 -0.064819016 -0.08704574
-0.031744342 -0.041583244 -0.09059968 -0.052413195 0.003151119 0.026402561 -0.046818256 0.0062762713
0.028679518 -0.07735832 -0.008070496 0.02897684 -0.12695372 0.021014996 0.016179461 0.04624451
0.043762293 -0.022606425 0.00010181139 -0.098066874 -0.11331959 -0.07467835 -0.075757064 0.07073664

1.fc2.bias f4 [10]
00000000: 778d 503d 86ec cb3c 660a 2abd 8d09 8d3b
00000010: c81f 5dbd 84b0 d1ba 06f9 8fbd 9640 69bc
00000020: 652c 833c 53ee 073d
0.05091616 0.024893057 -0.041513823 0.004304117 -0.053985387 -0.001599804 -0.07029919 -0.01423659
0.01601238 0.033186268
