HW1/weights_AT_0.1.pt (torch, 638152 bytes, 4 tensors)

1.fc.weight f4 [200, 784]
0	0x3ceecb83	0.029149776
1	0x3c415629	0.011800327
2	0xbc0fee66	-0.008784866
3	0x3ca82ebf	0.020530103
4	0xbad2b2cd	-0.0016075015
5	0xbb8f1641	-0.0043666665
6	0xbcab0615	-0.020876924
7	0x3bfaceaf	0.007654033
8	0xbb77aeac	-0.0037793322
9	0xbb136881	-0.002249271
10	0xbcbe93a1	-0.023263754
11	0x3cf70a6d	0.030156339
12	0x3c5f997a	0.0136474315
13	0x3c6845fd	0.014176843
14	0x3ce2cc6f	0.027685372
15	0xbb973ac7	-0.004615161
16	0xbc5a6c00	-0.013331413
17	0x3c5aa905	0.013345961
18	0xbc8c8fcd	-0.017158413
19	0x3bcf06c4	0.006317945
20	0xbca52fd7	-0.020164413
21	0xbcff033f	-0.031129478
22	0xbbddb0ce	-0.0067654615
23	0x3c38260f	0.011239543
24	0x3c3a45bf	0.011369168
25	0xbca53aea	-0.020169694
26	0xbcbe5547	-0.023234023
27	0x3cd0a350	0.025468498
28	0x3cbeb2c6	0.023278605
29	0x3c4ea9b8	0.012613706
30	0xbc9a2848	-0.018818036
31	0xbce7054f	-0.028200774
32	0xbc716210	-0.014732853
33	0x3c081d2e	0.008307738
34	0xbcdc9a00	-0.026928902
35	0x3c95758c	0.018244527
36	0xbcffa70a	-0.03120758
37	0x3b8fe91a	0.0043918015
38	0x3ca98076	0.020691138
39	0x3ce90f3c	0.028449647
40	0xbc3b7440	-0.01144129
41	0x3ae38ee6	0.0017361313
42	0x3c89f934	0.016842462
43	0x3cb45db1	0.022017332
44	0xbc068199	-0.008209609
45	0x3cde21da	0.027115751
46	0xbce89d4d	-0.02839532
47	0xbd0a8564	-0.033818617
48	0x3b14db5a	0.0022713752
49	0x3c13db37	0.009024433
50	0xbd16d017	-0.036819544
51	0x3cf854d7	0.030313892
52	0x3cae60ce	0.021286394
53	0xbd02b72e	-0.031912975
54	0xbc760166	-0.015014982
55	0xbcc48e9f	-0.023993788
56	0xbc7fb052	-0.015606003
57	0x3bd1019f	0.006378367
58	0x3a3a47d0	0.0007106038
59	0xbbdcebf6	-0.006741996
60	0xbcd5a6e8	-0.026080564
61	0x3b95fe48	0.004577432
62	0x3cd2af80	0.02571845
63	0xbcaf92d7	-0.021432323
64	0x3c9e7b2c	0.019345842
65	0xbd0c468a	-0.03424696
66	0x3c6952c6	0.014240926
67	0xbce50fb4	-0.02796159
68	0x3c343075	0.010997881
69	0xbce8c93b	-0.028416267
70	0xbcd7ca12	-0.026341472
71	0x3cd81e90	0.02638176
72	0x3c5e5530	0.013570115
73	0x3cc920a5	0.024551699
74	0xbcae448e	-0.021272924
75	0xbc14a96e	-0.009073598
76	0xbc871831	-0.016491028
77	0xbc86f086	-0.016472112
78	0xbc96bc81	-0.018400433
79	0x3ca453ef	0.020059554
80	0x3b18d030	0.0023317449
81	0xbd013274	-0.031542256
82	0x3c6051eb	0.013691406
83	0x3cc8169c	0.024424843
84	0xbc93181c	-0.017955832
85	0x3c8bb082	0.017051939
86	0xbb77304e	-0.0037718
87	0xbc553ed1	-0.013015465
88	0x3cda5be3	0.026655143
89	0xbc065f8c	-0.008201491
90	0x3ceeb607	0.029139532
91	0x3c6ce0e9	0.01445792
92	0x3cbba84e	0.022907402
93	0xbcff6467	-0.031175805
94	0xbccb24fd	-0.02479791
95	0x3c80245d	0.01564234
96	0xbbe05de8	-0.006847132
97	0x3a564d18	0.000817494
98	0xbb38071a	-0.0028080405
99	0xbbc0a290	-0.005878754
100	0x3b83c6a4	0.0040214825
101	0xbca4ee28	-0.020133093
102	0xbcca166b	-0.024668893
103	0xbcbcdb36	-0.023053747
104	0xbc519167	-0.012791014
105	0xbcf8a06e	-0.030349936
106	0xbcfdee50	-0.030997425
107	0xbc918180	-0.017761946
108	0x3b1b2169	0.0023671037
109	0x3cbc15ef	0.022959678
110	0xbce9c08b	-0.028534194
111	0x3c01ef60	0.007930607
112	0xbb300a6f	-0.0026861688
113	0x3ad62a82	0.0016339573
114	0xbc22916b	-0.009922366
115	0x3cbdd677	0.023173554
116	0xbd04ba67	-0.03240433
117	0xbb1d9966	-0.0024047731
118	0xbc5c7314	-0.013455171
119	0x3ccf9885	0.025341282
120	0x3cc10fff	0.023567198
121	0xbcdfbc02	-0.027311329
122	0xbbd3c0c2	-0.0064621875
123	0xbc76cada	-0.015063012
124	0x3cc6e0f0	0.02427718
125	0xbc96f9a5	-0.018429587
126	0x3b6ec0e7	0.0036430897
127	0xbd0a78f6	-0.033806764
128	0xbcaff169	-0.021477418
129	0xbd1c342e	-0.0381357
130	0xbc130215	-0.008972664
131	0xbca87be2	-0.020566884
132	0x3c6613d1	0.014042811
133	0xbc4f3ffa	-0.012649531
134	0x3cd9d185	0.026589165
135	0xbc6179c5	-0.013761942
136	0x3cbaa3f6	0.02278326
137	0x3cb0226d	0.02150079
138	0x3c383a93	0.011244434
139	0x3cd87b30	0.026425928
140	0xbd1047b2	-0.035224624
141	0x3cdd9390	0.027047902
142	0x3c03aef4	0.008037318
143	0x3c4c3233	0.01246314
144	0xbc576500	-0.013146639
145	0xbc84dbd1	-0.016218098
146	0xbcaeeb1d	-0.021352345
147	0xbc7a6646	-0.015283173
148	0xbd08b878	-0.033379048
149	0xbce76739	-0.028247463
150	0x3cd0f202	0.025506023
151	0xbb940201	-0.0045168404
152	0x3c1d942a	0.009617845
153	0xbba961c8	-0.005169127
154	0xbb7a91ae	-0.0038233805
155	0x3cf7f83f	0.03026974
156	0x3c3d20da	0.011543477
157	0x3c010a8b	0.007876049
158	0x3cc42889	0.02394511
159	0x3cbf97ea	0.023387868
160	0x3cc69df9	0.02424525
161	0xbc9190d8	-0.017769262
162	0xbc99b75f	-0.018764196
163	0x3d10252c	0.0351917
164	0xbca840ce	-0.020538714
165	0xbcb2c711	-0.021823438
166	0xbc51c7d8	-0.012803994
167	0xbcb562c5	-0.022141824
168	0x3c4f99db	0.012670959
169	0x3cfcdb85	0.030866394
170	0xbd0dfdd0	-0.034665883
171	0xbc21cb09	-0.0098750675
172	0xbae89961	-0.0017745906
173	0x3ca5b6ae	0.02022871
174	0x3cfef74e	0.031123783
175	0x3c3c88de	0.011507241
176	0xbcbc9777	-0.023021443
177	0x3bf59421	0.007494465
178	0x3ad66313	0.0016356431
179	0xbced3bd7	-0.028959198
180	0xbae3b2ef	-0.0017372052
181	0x3cf4c11b	0.029877236
182	0xbc99db6e	-0.01878139
183	0xbb9a7eb4	-0.004714811
184	0xbbfd6533	-0.007733011
185	0x3bd55712	0.0065106237
186	0xbc80bcf1	-0.015715094
187	0xbc56e7c7	-0.013116783
188	0x3d1856a6	0.03719201
189	0x3d1f0845	0.038826246
190	0x3ce093fe	0.027414318
191	0xbb310297	-0.00270096
192	0xbbd41a79	-0.0064728823
193	0xba8b1052	-0.0010609722
194	0x393a3d88	0.00017761264
195	0x3c28c3ed	0.010300619
196	0x3c45d2e6	0.012074208
197	0xbcc6c9e0	-0.024266183
198	0x3cfa7b8f	0.030576495
199	0xbc26c140	-0.01017791
200	0xbc33a2f9	-0.010964149
201	0xbc92c25d	-0.017914945
202	0xbc91a609	-0.017779367
203	0xbcb89f9b	-0.022537043
204	0x3d00bfd4	0.03143294
205	0x3cad1a5e	0.021130737
206	0x3c1e925f	0.009678452
207	0xbc9e9944	-0.019360192
208	0x3cf91e90	0.030410081
209	0x3c67eb00	0.014155149
210	0x3bb52a93	0.005528757
211	0x3bb9364a	0.0056522237
212	0xbcc0b0ba	-0.02352177
213	0xbabacac5	-0.0014251104
214	0xbc3e5781	-0.011617542
215	0x3d1985a8	0.03748098
216	0x3c35fb99	0.011107349
217	0xba83a3e9	-0.0010043356
218	0x3d31e79c	0.04343377
219	0xba4bfb3f	-0.0007781274
220	0x3d1c6455	0.03818162
221	0x3bad7e45	0.0052945935
222	0x3cff3f3f	0.031158088
223	0x3cde6c8e	0.027151372
224	0xbcca5fa6	-0.024703812
225	0x3c4abab5	0.012373616
226	0x3b7a5245	0.003819601
227	0x3cf1cf63	0.029517835
228	0xbb83716d	-0.004011324
229	0x3cc4d157	0.024025602
230	0x3b4045a0	0.0029338375
231	0x3cd73c64	0.026273914
232	0x3bb18feb	0.0054187677
233	0xbc497d3c	-0.012297925
234	0x3cc52bac	0.024068676
235	0xbc86dd3f	-0.01646292
236	0xba17f093	-0.0005796041
237	0xbcd90104	-0.026489742
238	0xbd0932f7	-0.03349587
239	0xb73ec420	-1.1370546e-05
240	0x3cb44124	0.022003718
241	0x3a759e50	0.00093695987
242	0x3c664d83	0.014056566
243	0xbcc1ae86	-0.02364279
244	0xbbfa485d	-0.007638021
245	0xbc69b02d	-0.014263195
246	0xbbac8da4	-0.0052659083
247	0xbc995edb	-0.018721988
248	0x3c90132d	0.017587269
249	0xbcaf2147	-0.021378173
250	0x3c6801d2	0.01416059
251	0x3c947873	0.01812384
252	0x3c95ed17	0.01830153
253	0xbc8e7d81	-0.01739383
254	0xbcfda7f5	-0.030963877
255	0x3c02d307	0.007984883

1.fc.bias f4 [200]
0	0xbd0ac5f6	-0.033880197
1	0x3ca617b0	0.020274967
2	0x3bed68bd	0.007245152
3	0x3d244ac1	0.040110353
4	0x3cd9f81d	0.026607567
5	0x3bcabb6a	0.0061868923
6	0x3ce5cd67	0.028052045
7	0xbcafee13	-0.021475827
8	0x3d04bdc4	0.032407537
9	0x3c42442e	0.011857076
10	0x3cac3155	0.021019617
11	0x3b182821	0.0023217278
12	0x3cbb772c	0.022883974
13	0xba2efc50	-0.0006675171
14	0xbc133577	-0.008984915
15	0xbc83716e	-0.016045298
16	0xbd1def60	-0.038558364
17	0xbd146e42	-0.036237963
18	0xbc6b4c70	-0.014361486
19	0xbd2588c8	-0.040413648
20	0x3c3a068f	0.011354103
21	0x3c5e90fc	0.013584372
22	0xbc7c06be	-0.015382467
23	0x3bc9c077	0.006156977
24	0xbcf88910	-0.030338794
25	0xbc6eca8c	-0.014574658
26	0x39e8a3d7	0.00044372558
27	0xbcb936a8	-0.02260907
28	0xbd09ec01	-0.033672336
29	0xbd05fa36	-0.032709323
30	0xbc221587	-0.009892828
31	0xbc89019f	-0.016724406
32	0xbd10f67a	-0.03539131
33	0x3c7682a3	0.015045795
34	0x3ca4321f	0.02004343
35	0x3b2cdffc	0.0026378622
36	0xbcd054b6	-0.025431018
37	0xbb040a71	-0.0020147825
38	0xbd0734a4	-0.033009186
39	0xbc711a27	-0.014715708
40	0x3cc1a144	0.023636468
41	0x3caddc8c	0.021223329
42	0xbb722c5a	-0.0036952705
43	0x3cc93347	0.024560584
44	0x3c918b6a	0.017766673
45	0xbcc4f14d	-0.024040842
46	0xbd202d99	-0.039105985
47	0x3932414b	0.00016999726
48	0xbcd7ffbc	-0.02636706
49	0xbc8fe29e	-0.017564114
50	0xbc8ebb13	-0.017423188
51	0x3c4e3140	0.012584984
52	0xbc87bbe5	-0.016569087
53	0xbd0ee7ff	-0.034889217
54	0xbd41fd16	-0.047360502
55	0x3bce6ae7	0.006299365
56	0xbb9b0e33	-0.0047319173
57	0x3cd5b6b5	0.026088098
58	0x3d17da6d	0.03707354
59	0xbca22d47	-0.01979698
60	0x3bb20e92	0.005433866
61	0xbc169dec	-0.009192925
62	0x3c99c235	0.018769363
63	0x3d00e329	0.031466637
64	0xbc553e5d	-0.013015357
65	0xbc0cf761	-0.008603902
66	0xbaee531f	-0.0018182731
67	0x3d2cc701	0.042181972
68	0x3cb09116	0.021553557
69	0x3d2c588f	0.042076644
70	0xbcf9ed2b	-0.030508598
71	0x3cbd9fe3	0.023147529
72	0x3b9157b1	0.0044355025
73	0xbc4e8e7d	-0.012607214
74	0x3cca6e73	0.02471087
75	0xbba96e93	-0.005170652
76	0x3cdb57a0	0.026775181
77	0xbc8c52e4	-0.01712937
78	0xbacb148a	-0.0015493792
79	0x3ccb6591	0.024828704
80	0x3ce4c930	0.027927965
81	0x3d0efad3	0.034907173
82	0xbd0e08cd	-0.03467636
83	0x3bfce51d	0.007717742
84	0x3d4ee26a	0.050508894
85	0xbc20b905	-0.009809737
86	0xbd0a4c9f	-0.033764478
87	0x3d15ccbb	0.0365722
88	0xbba75058	-0.0051060133
89	0x3a9a0b95	0.0011752719
90	0x3c87ca49	0.01657595
91	0xbb82a414	-0.003986845
92	0x3cf96ddc	0.030447893
93	0x3cdb8a10	0.026799232
94	0x3cd034f3	0.025415873
95	0x3c9ec0a6	0.019378971
96	0x3c41b7a2	0.011823567
97	0xbcc6c4c6	-0.02426375
98	0x3d02719f	0.03184664
99	0xbb983a48	-0.0046456195
100	0xbca6c11b	-0.020355752
101	0x3aad3719	0.0013215273
102	0x3c21d605	0.009877686
103	0xbd1946d5	-0.037421066
104	0x3ca6ef7d	0.020377869
105	0x3c3801f4	0.011230934
106	0x3d270da3	0.04078449
107	0x3d10fa1a	0.035394765
108	0x3c984024	0.018585272
109	0x3ce8134b	0.028329512
110	0xbd118d5b	-0.035535198
111	0xbc03cb3e	-0.008044062
112	0xbc69909d	-0.01425567
113	0xbc0fb30c	-0.008770715
114	0xbb6ea70c	-0.0036415486
115	0x3a2a6801	0.0006500483
116	0xbcec4875	-0.028843144
117	0x3c485f2a	0.01222972
118	0x3b81688c	0.0039492305
119	0x3caf14a7	0.021372152
120	0xbc4452ba	-0.011982614
121	0x3c505678	0.012715928
122	0xbcd5d972	-0.026104663
123	0xba32ea74	-0.00068250974
124	0x3cdd0d02	0.026983742
125	0x3ca59cde	0.020216402
126	0x3bfde931	0.007748746
127	0x3bfcd616	0.0077159507
128	0x3bc9082f	0.0061350088
129	0x3ca001b3	0.01953206
130	0xbcfd4181	-0.030915024
131	0x3c906b11	0.017629178
132	0xbbb3f270	-0.0054915473
133	0xbc2bbd59	-0.010482156
134	0xbce0937d	-0.027414078
135	0xbcbbcad2	-0.02292386
136	0x3cfe6a64	0.03105659
137	0xbcf8fe07	-0.030394567
138	0x3cc87c50	0.02447334
139	0xbd0a6765	-0.03379001
140	0xbcddb39f	-0.02706319
141	0x3cfc7a05	0.030819902
142	0x3cde9f8e	0.027175691
143	0x3d018248	0.031618387
144	0xbc533a91	-0.012892381
145	0xbc716a69	-0.014734843
146	0x3bcb51d7	0.0062048244
147	0x3b07428a	0.0020639026
148	0xbb133167	-0.0022459866
149	0xbcb05112	-0.021523032
150	0xbcd523a2	-0.026017968
151	0xbcbf0910	-0.023319751
152	0xbce87781	-0.028377296
153	0x3ae23a28	0.0017259764
154	0x3cad8b7d	0.021184677
155	0x3ce4a35f	0.027909933
156	0xbcf8b19b	-0.030358126
157	0x3c4916e5	0.012273525
158	0xbc3e11b7	-0.011600903
159	0xb9aa7465	-0.00032511647
160	0xbcc5c2e2	-0.024140779
161	0x3a9c2101	0.0011911691
162	0xbc429d4e	-0.011878325
163	0x3b95a156	0.004566352
164	0xbcbe87de	-0.023258146
165	0xbc8fe4c5	-0.01756514
166	0xbd04729b	-0.03233586
167	0x3c956c77	0.018240197
168	0xbcbf1f0c	-0.023330234
169	0x3cf1c1cc	0.029511355
170	0xbb92a1ab	-0.0044748387
171	0xbc971bb5	-0.018445829
172	0xbd1c68a5	-0.038185734
173	0xbbc5746f	-0.006025843
174	0xbceea4d4	-0.02913133
175	0xbbd906cd	-0.006623125
176	0xbc0982fe	-0.008393047
177	0xbcf28d7a	-0.029608477
178	0x3c955aa9	0.018231707
179	0xbcb2128f	-0.021737365
180	0x3cf9824a	0.030457634
181	0xbd0e8aa4	-0.034800187
182	0x3cf25c5d	0.029585058
183	0xbc94f97d	-0.018185372
184	0x3c2d33a8	0.010571398
185	0x3d193e75	0.03741308
186	0xbc799456	-0.01523312
187	0x3c2ffc17	0.010741255
188	0xbcbfb3d6	-0.023401182
189	0xbd1d320c	-0.038377807
190	0x3bbb7ba1	0.005721525
191	0x3d1658f0	0.03670591
192	0x3cace942	0.02110732
193	0x3cec9eca	0.02888431
194	0xbce0ef69	-0.02745791
195	0x3d132242	0.035921343
196	0x3c16e8cd	0.0092107775
197	0xbbbbd929	-0.0057326746
198	0xbcf07cf7	-0.029356463
199	0x3cb8b5a0	0.022547543

1.fc2.weight f4 [10, 200]
0	0xbb5534ae	-0.003253262
1	0x3c3c4fa5	0.011493598
2	0x3da4d9eb	0.08049377
3	0x3dc05cd6	0.09392707
4	0xbc178c68	-0.009249784
5	0x3cc8d5fb	0.024516096
6	0xbc41858c	-0.011811625
7	0xbd39cee1	-0.04536331
8	0xbb4d9fce	-0.0031375769
9	0x3caa4b33	0.02078781
10	0xbbce04ad	-0.0062871785
11	0xbcf1994a	-0.02949204
12	0xbc0b18bd	-0.008489785
13	0xbcef7a27	-0.029233051
14	0xbb96d972	-0.004603558
15	0xbb6042fa	-0.0034219609
16	0x3c949838	0.01813899
17	0x3cfa8257	0.030579729
18	0x3ad93681	0.001657203
19	0xbc5c4ed7	-0.013446531
20	0x3c5f2c86	0.013621455
21	0xbc530303	-0.012879136
22	0x3b2a8838	0.0026021134
23	0xbd21cb11	-0.0395003
24	0xbcc91349	-0.024545329
25	0x3c8150a1	0.015785517
26	0xbd29337f	-0.041308876
27	0x3d533177	0.051560845
28	0xbc594ba8	-0.013262667
29	0xbd1c7e52	-0.038206406
30	0xbd09fe4d	-0.033689786
31	0xbb8fec40	-0.004392177
32	0x3cb8946d	0.022531712
33	0x3d0061ad	0.03134315
34	0x3b31a5a8	0.0027106795
35	0xbd0739fd	-0.033014286
36	0xbdb8b82f	-0.09019505
37	0xbd77297d	-0.0603423
38	0x3bbfc105	0.005851867
39	0xbc1e5f84	-0.009666327
40	0x3c93c0f9	0.018036352
41	0xbc894058	-0.016754314
42	0xbba6358a	-0.0050723003
43	0xbcd01332	-0.025399778
44	0x3c2203a4	0.009888563
45	0xbcb27b8d	-0.02178743
46	0xbd1304e3	-0.035893332
47	0xbd794f3e	-0.060866587
48	0xbbcf01fb	-0.0063173748
49	0xbcb8b2f9	-0.022546278
50	0xbcb9390a	-0.022610206
51	0xbc3dded5	-0.011588772
52	0x3ca634f2	0.020288918
53	0x3cc43194	0.023949422
54	0xbd07d70c	-0.03316407
55	0x3bdba581	0.006703079
56	0x3d806195	0.06268612
57	0xbc6c32b7	-0.014416388
58	0xbc9425cf	-0.018084435
59	0x3ad9cb7f	0.0016616433
60	0x3ab17d94	0.0013541454
61	0xbcb113af	-0.021615831
62	0xbd1f6d40	-0.03892255
63	0xbcded3de	-0.027200636
64	0x3c889b24	0.01667554
65	0x3d83f137	0.064424925
66	0x3bd973c3	0.0066361143
67	0x3d66bc7a	0.05633209
68	0xbcc979e4	-0.024594255
69	0x3cf0038d	0.029298568
70	0xbc0ece22	-0.008716138
71	0x3db8278a	0.089919165
72	0xbd59e286	-0.053194545
73	0x3bdfa091	0.006824561
74	0xbdcb9a2a	-0.09941514
75	0x3ca3bf6e	0.019988742
76	0x3d0d8300	0.03454876
77	0xbc972b20	-0.01845318
78	0xbc4f73b7	-0.012661866
79	0xbc5daddb	-0.01353022
80	0xbc12941c	-0.008946445
81	0xba0b069a	-0.0005303413
82	0xbce7f78c	-0.028316282
83	0xbd1d126f	-0.038347658
84	0x3db84dc4	0.089992076
85	0xbbfc2c9c	-0.0076957475
86	0xbb26a3da	-0.0025427253
87	0xbd2d25b2	-0.042272277
88	0x3b59d49b	0.0033238295
89	0xbd1fa8aa	-0.03897921
90	0xbd4b29f0	-0.04960054
91	0xb9ec256d	-0.00045041312
92	0x3c714378	0.014725558
93	0x3d2a8908	0.04163459
94	0xbd1aec9d	-0.03782331
95	0x3d70e247	0.058809545
96	0xbc76bfdf	-0.015060394
97	0x3ceeb8e0	0.02914089
98	0x3d6b32c0	0.057421446
99	0x3c822003	0.015884405
100	0xbb328345	-0.0027238887
101	0xbc59b789	-0.013288387
102	0x3b9b5d51	0.004741349
103	0xbd529202	-0.051408775
104	0xbd7a71d7	-0.061143722
105	0x3d55dd93	0.052213263
106	0x3d13f45f	0.036121722
107	0x3d1ef8b8	0.038811415
108	0x3d5159df	0.0511111
109	0xbd3ae6b0	-0.045630157
110	0xbd489dbb	-0.04897855
111	0x3c4ba403	0.01242924
112	0xbccb1983	-0.024792438
113	0xbc30ddb2	-0.010795044
114	0xbba60881	-0.0050669317
115	0xbd6b6a69	-0.057474528
116	0x3ce6060a	0.028079052
117	0x3dde4409	0.108528204
118	0x3aa54280	0.001260832
119	0xbd376b68	-0.044780165
120	0xbca65667	-0.020304872
121	0xbd977a29	-0.07396347
122	0x3ba456d6	0.0050152345
123	0xbc7c25cd	-0.015389872
124	0xbd2e55ac	-0.04256217
125	0x3a19cc5d	0.00058669393
126	0xbd0ff244	-0.035143152
127	0xbd2bafab	-0.041915577
128	0xbce09432	-0.027414415
129	0x3cc0b74c	0.023524903
130	0x3cc80f84	0.02442146
131	0x3b1a13e9	0.0023510403
132	0x3a485e51	0.0007643449
133	0xbc89e4e5	-0.016832778
134	0xbbe79ad9	-0.00706802
135	0xbc4c3e02	-0.012465956
136	0xbb01f02e	-0.0019826996
137	0x3cfddb5c	0.030988388
138	0x3c8bbce8	0.017057851
139	0x387fa89d	6.095377e-05
140	0x3b869968	0.004107643
141	0xbcf1d2c2	-0.029519442
142	0xbac959fa	-0.0015361898
143	0xbc297a05	-0.010344033
144	0xbca932aa	-0.020654041
145	0x3c798b4f	0.015230968
146	0xbbc94d5c	-0.006143255
147	0xbbf4d781	-0.007471979
148	0x3c5010b1	0.012699292
149	0x3d20de4a	0.03927449
150	0xbd21e51d	-0.03952514
151	0xbbfd4dbd	-0.0077302144
152	0xbc06887f	-0.008211254
153	0xbc782ea7	-0.015147842
154	0xbab275ba	-0.0013615408
155	0xbc20dd56	-0.009818396
156	0x3bd7d3ab	0.006586512
157	0xbc9a2172	-0.018814776
158	0xbc7df2c5	-0.015499775
159	0xbd82a551	-0.06379188
160	0xbd03d78f	-0.032187995
161	0x3de368b4	0.11103955
162	0x3d0b1376	0.033954106
163	0x3cbca312	0.023026977
164	0xbd0f1112	-0.03492839
165	0xbc1bc315	-0.00950696
166	0xbc3f3cc8	-0.011672206
167	0x3cac2794	0.021014966
168	0xbd070059	-0.032959316
169	0x3c02bf62	0.0079801995
170	0xbbb760c5	-0.0055962526
171	0x3c352a33	0.011057424
172	0x3b487ece	0.003059316
173	0xbc9f84f3	-0.019472575
174	0x3df0eaa2	0.11763503
175	0xbcc95ea5	-0.024581263
176	0x3ccaa8c7	0.024738682
177	0x3c1c77ac	0.009550016
178	0xbcd1e08f	-0.025619773
179	0xbd16b233	-0.036791038
180	0x3c305b59	0.0107639665
181	0xbc2580f3	-0.010101545
182	0x3ca7a952	0.02046648
183	0xbc94e852	-0.018177185
184	0xbcc4e4d2	-0.024034891
185	0xbbb06540	-0.0053831637
186	0xbd4ca774	-0.049964383
187	0x3bf986db	0.007614953
188	0x3b403c9a	0.0029332996
189	0xbc7eec52	-0.015559273
190	0xbc88faf2	-0.016721223
191	0xbbe8fe99	-0.0071104285
192	0x3a92193b	0.0011146435
193	0xbb7a2e1a	-0.0038174451
194	0xbc3b099b	-0.011415864
195	0xbca77d2e	-0.020445433
196	0xbc9882d6	-0.018617075
197	0xbcc46324	-0.023973055
198	0xbd0b9413	-0.03407676
199	0x3cb3386b	0.021877488
200	0xbc82ac8e	-0.015951421
201	0x3be38610	0.0069434717
202	0xbd538504	-0.051640525
203	0xbc834e8a	-0.016028661
204	0x3cdbf72a	0.026851255
205	0xbd35beeb	-0.044371527
206	0x3a887a82	0.0010412487
207	0xbd677150	-0.056504548
208	0xbaaa603d	-0.0012998652
209	0xbcf1e5a4	-0.029528446
210	0xbce3cb4d	-0.027806902
211	0xbccd7ef8	-0.025084957
212	0x3c10177d	0.008794663
213	0x3cc16fe6	0.023612928
214	0x3da3b795	0.07994
215	0x3d0cec3d	0.034404982
216	0xbd0a20a2	-0.033722527
217	0xbd389c96	-0.045071207
218	0x3d3b23bf	0.045688387
219	0xbcf74d0d	-0.030188108
220	0xbc6c7e12	-0.014434354
221	0xbc9b98ca	-0.018993754
222	0xbc730963	-0.014833781
223	0x3df9155f	0.12162279
224	0xbd19c727	-0.037543442
225	0x3a6b3e0f	0.0008973786
226	0xbb02ec12	-0.0019977135
227	0x3db35b05	0.08757595
228	0x3d273211	0.04081923
229	0xbb3705a0	-0.0027926937
230	0xbd09871e	-0.033576123
231	0x3b9741a2	0.0046159783
232	0xbc275c76	-0.0102149155
233	0xbcd904fc	-0.026491635
234	0x3def7670	0.11692512
235	0xbd30ef0b	-0.04319672
236	0x3d1469f0	0.036233842
237	0x3d7140f9	0.058899853
238	0xbc32bced	-0.010909301
239	0x3abdfe59	0.0014495357
240	0x3ba4b473	0.005026394
241	0x3b1f3fef	0.0024299582
242	0xbd218bc9	-0.03943995
243	0x3d8ef4a7	0.069802575
244	0x3d06536a	0.032794394
245	0xbd137a2e	-0.03600519
246	0xbcbe246a	-0.023210723
247	0xbb2f9b54	-0.0026795464
248	0xbd2f9256	-0.042864166
249	0x3d242943	0.040078413
250	0xbc61311a	-0.013744617
251	0x3c16ebdd	0.009211508
252	0xbbf77e7b	-0.0075529194
253	0x3c2f576d	0.010701996
254	0xbd635fca	-0.055511273
255	0xbbe5bf3b	-0.007011322

1.fc2.bias f4 [10]
0	0xbcae0e22	-0.021246973
1	0x3e28cd43	0.16484551
2	0xbdc06536	-0.093943045
3	0x3c1ca67c	0.009561177
4	0x3ca0f357	0.019647283
5	0xbd35a619	-0.044347856
6	0x3c312bf9	0.010813707
7	0x3d401202	0.046892174
8	0xbe016d86	-0.12639436
9	0xbd88979c	-0.06669542
