HW1/weights_AT_0.1_shuffled.pt (torch, 638288 bytes, 4 tensors)

1.fc.weight f4 [200, 784]
000000 e2 cf b3 3b 4a 27 ff 3c ee 60 01 bc 6b 3a 0f bc
       0.005487428 0.031146664 -0.007896645 -0.008741955
000010 e2 25 b1 bc 18 47 9b bb ac b5 d0 bc b0 85 8e bc
       -0.02162451 -0.0047386996 -0.025477253 -0.017397732
000020 a8 14 12 3c 0c 65 76 3c 60 0d 0a bd db ea 8b bc
       0.008916058 0.01503874 -0.03370416 -0.017079761
000030 63 02 2f 3c 81 ca e1 bc f6 77 74 3c 58 a8 b4 bb
       0.010681721 -0.027562382 0.014921179 -0.005513232
000040 0b 54 e0 3c 3c a2 56 3b f3 e0 f0 bc 59 19 26 3c
       0.027383825 0.0032750508 -0.02940414 0.010137879
000050 22 aa 0e 3c 93 49 6d bc 42 2b a0 3c 46 16 ea bc
       0.008707555 -0.0144828735 0.019551877 -0.028575074
000060 04 3b 7a bc 66 88 a3 bc 13 ee 0b 3d 10 41 c3 3c
       -0.0152728595 -0.0199625 0.034162592 0.023834735
000070 2d 79 ba bc d3 1c d5 bb ca 12 52 3c e6 c0 57 bc
       -0.02276286 -0.0065036803 0.0128218625 -0.013168549
000080 1c 22 db bc cf ad 93 bc 23 66 be ba 44 d6 e9 3c
       -0.026749663 -0.018027214 -0.0014526289 0.028544553
000090 96 62 17 3c 48 be ae bb 7f d2 b9 3c 0c 4f b9 bb
       0.009239813 -0.005332742 0.02268338 -0.005655175
0000a0 c9 25 d0 3c e7 ce ef bc e2 bc 17 3d 50 b7 c3 bc
       0.025408642 -0.029273463 0.037045367 -0.023891121
0000b0 97 f0 b3 3c 8d 12 97 3a d5 1f 9e 3c 6f 8c 5f bc
       0.021965308 0.0011525914 0.019302288 -0.013644322
0000c0 d4 62 f1 bb cb 78 bc 3c cc 28 06 bd c0 a6 44 3c
       -0.0073665176 0.023006817 -0.03275375 0.012002647
0000d0 cb f4 d8 bc db 8e 9c 3c 64 42 8c 3b 27 e7 57 bc
       -0.026483914 0.019111088 0.0042803753 -0.01317767
0000e0 b4 fa f5 bc 9b 9a cd 3c e8 c0 89 bc 81 33 9f bc
       -0.030026771 0.025098136 -0.016815618 -0.019433739
0000f0 27 46 dd bc 03 e1 b8 bb 15 86 d8 bc c5 10 f4 3c
       -0.02701099 -0.005642058 -0.026431123 0.029793153
000100 b0 1d 16 bd 6c 6b eb bc 31 ec d0 bc aa 3e c2 bb
       -0.036649406 -0.028737746 -0.02550325 -0.0059278803
000110 2a c1 a7 bc 1a 43 a0 3c fa 05 aa 3c f1 a8 c5 3a
       -0.02047785 0.019563247 0.020754803 0.0015080256
000120 e0 bb 5e 3b 44 c6 63 3c cf 0b 02 3d f0 0b bc 3c
       0.0033986494 0.013902251 0.031749543 0.022954911
000130 9d 8a 2b bb 7d 76 70 bc ff 42 d3 3c e3 b2 6f 3c
       -0.002617515 -0.014676687 0.025788782 0.014630052
000140 1d 8c b0 bc 7d ea bd 3c b3 b0 fd 3b fc 92 ec bc
       -0.021551186 0.023183102 0.0077420115 -0.028878681
000150 64 79 8d bc df 85 e7 3c 01 0a 13 3c 43 14 e0 3c
       -0.017269798 0.028262077 0.008974553 0.027353412
000160 ba 81 d1 3c 78 35 00 bd 17 35 49 3c db 69 25 bb
       0.025574554 -0.03130099 0.012280724 -0.0025240097
000170 78 31 af 3c 42 cf f4 3b b6 8e 3a 3a 66 72 fd ba
       0.021385893 0.007470996 0.00071166025 -0.0019336462
000180 a4 d2 5a 3b 73 11 ee 3b 0e 5f cf bc 51 1a 36 bc
       0.0033389712 0.0072652637 -0.02531388 -0.011114673
000190 88 5f 3f bc c1 1a 42 bc 12 e3 f2 bb 0e 9d 54 3c
       -0.011680491 -0.011847199 -0.007412323 0.012976898
0001a0 02 eb c2 3c 47 ad f9 bc 6b 3a 3b bc 25 54 ed 3c
       0.023793701 -0.030478133 -0.011427502 0.028970787
0001b0 eb cf c3 3c 47 b0 0d bc de 06 39 3c 41 b3 28 3c
       0.023902854 -0.008647985 0.011293141 0.010296644
0001c0 55 d3 01 3d be b7 4f bb 49 fd c3 bc 06 67 cb bb
       0.031695683 -0.0031695212 -0.023924487 -0.0062073497
0001d0 46 9e 8a bb 75 66 43 bc 8c a3 94 3c 3d c0 8d 3c
       -0.0042302934 -0.011926283 0.018144391 0.01730358
0001e0 0b 12 e1 3c da 37 a8 3a 98 59 01 bc 24 f6 a4 bb
       0.027474424 0.0012834028 -0.007894896 -0.005034225
0001f0 d5 75 a7 bc 09 84 e4 ba 74 f4 e3 bc 65 c7 fa bb
       -0.020441929 -0.0017434369 -0.027826525 -0.007653164
000200 55 ac 2b bc 3c bd 75 bb 7f 5b c1 3c d4 f5 ba 3c
       -0.010478099 -0.0037496826 0.023603199 0.022822298
000210 37 0c e6 bc 85 1a 9c 3c 6e f9 41 3c 9c 9d 3a 3c
       -0.028081996 0.019055614 0.011839254 0.011390116
000220 f7 6b 34 3b 53 ec dc bc 71 13 16 3c 78 45 b3 bc
       0.0027530172 -0.026968157 0.009159909 -0.021883711
000230 bf 0a da bc 11 9d 98 bb d6 32 fc bc 3c c8 a1 bc
       -0.026616452 -0.0046573956 -0.03078596 -0.0197488
000240 09 e3 ee bc cc f1 0d 3d 89 fa 14 bd 4b 37 2c 3c
       -0.029160993 0.034654424 -0.03637174 0.01051123
000250 44 e2 8c 3c 02 7e b3 3c 88 e4 bc bc 36 42 89 bc
       0.017197736 0.021910671 -0.023058191 -0.016755205
000260 5e 96 c9 bc fa 24 67 bc 4c e8 af bb bc 89 89 bc
       -0.024607833 -0.014107937 -0.005368268 -0.01678931
000270 8c 3e 4a b9 90 b5 5e 3c a8 53 9d bc 97 ba 95 bc
       -0.00019287522 0.013593093 -0.01920493 -0.01827745
000280 e0 8c f4 b8 cc f5 a1 ba 37 e4 b4 bb 10 d9 81 ba
       -0.00011661067 -0.0012356578 -0.0055203694 -0.0009906609
000290 18 28 9a 3c 23 81 86 bb 5d 25 79 3b a3 8a 03 bc
       0.018817946 -0.0041047498 0.0038016655 -0.008028659
0002a0 98 44 1d bc 8d d9 39 3c e8 d7 dd 3c 2d ce 08 bd
       -0.009598874 0.011343372 0.027080491 -0.03339975
0002b0 a3 76 d5 bc 24 0c e3 3c c5 02 1a bc ae c3 12 bd
       -0.026057547 0.02771575 -0.009400074 -0.035831146
0002c0 39 1b 97 3c fe e0 d5 bc dd 5c f2 bc 07 88 43 bd
       0.018445598 -0.026108261 -0.029585296 -0.047737148
0002d0 e8 ef 27 bd 8c ae cc bc 0d 65 20 bd 1d 26 fb 3c
       -0.041000277 -0.024985574 -0.03915887 0.030657822
0002e0 69 97 79 bc c9 91 6b bc bc b0 26 3d af a1 7d ba
       -0.015233853 -0.01437802 0.04069589 -0.0009675277
0002f0 14 37 f5 3c eb ae 78 3c 8e 15 ba bb 6e f3 79 3c
       0.02993349 0.015178422 -0.005678839 0.015255792
000300 b0 af bc 3c 8d 74 40 bc 2d 71 a3 3c b3 f8 90 bc
       0.023032993 -0.011746538 0.019951427 -0.017696714
000310 9c 39 dc bc f6 27 c2 3b f5 1d f1 3c bf 72 91 3c
       -0.026882939 0.005925174 0.02943323 0.01775491
000320 65 82 ba ba d8 4a fd 3c 09 97 c8 ba f9 22 06 bd
       -0.0014229534 0.030919477 -0.0015303801 -0.032748196
000330 8b 8a 5d bb 56 5a 52 3c f3 51 bf 3c 6b 1c e4 3b
       -0.0033804502 0.012838921 0.023354506 0.0069613955
000340 25 cb e7 bc 27 44 b4 bc a5 3f d6 bc 74 10 97 3c
       -0.028295109 -0.022005154 -0.026153395 0.018440463
000350 17 29 d8 3c a7 bf c2 3c 8e d4 85 bc 03 e9 d8 3c
       0.02638678 0.023773028 -0.016336706 0.026478296
000360 07 5d 37 bc cb 9e c1 3b 98 36 7e 3c 9c 5c 3a 3a
       -0.011191613 0.005908822 0.015515946 0.0007109137
000370 a4 d1 93 bc 37 cb a6 3b 0b d2 2d bc 8c f3 c6 3c
       -0.0180443 0.005090143 -0.01060916 0.024286054
000380 4d a5 ca bc b4 53 a3 bb 8f b3 08 bd a5 62 94 bc
       -0.024737025 -0.0049843434 -0.033374365 -0.018113444
000390 bb 8b 01 bd bb 97 18 bc bb c7 89 3c b3 2e d2 bc
       -0.031627398 -0.009313519 0.016818872 -0.025657034
0003a0 3a 18 a5 bc 29 28 97 bc ac 91 68 3c 58 23 9b bb
       -0.020153154 -0.018451767 0.014194887 -0.004734438
0003b0 b4 e8 bc bc 88 ab 5b bd 6b 65 f5 bc 50 cb b3 ba
       -0.02306018 -0.05363038 -0.029955586 -0.0013717208
0003c0 fb a5 cd 3c 0a 45 d6 39 40 dd 27 ba d2 d2 e4 3c
       0.02510356 0.000408687 -0.0006403513 0.027932558
0003d0 37 9a 5f bc a3 86 2f bc cd d8 c6 3b dc 12 2d 3c
       -0.0136476075 -0.010713252 0.006068325 0.010563578
0003e0 3c 39 af bc e8 26 4f bc 5a ae 4b bc 91 b9 ad 3c
       -0.021389596 -0.012643553 -0.012431705 0.021206649
0003f0 a8 7c ea 3c e8 52 ae 3a 28 bd 3c 3c 82 67 de bc
       0.028623894 0.0013299854 0.011519708 -0.027148966

1.fc.bias f4 [200]
000000 47 1e e5 3c 90 a0 d6 bc 99 55 4a bc e2 63 5d 3c
       0.027968539 -0.026199609 -0.01234951 0.013512583
000010 f4 16 ed bb 16 7b 91 bc f5 f0 59 3a 09 03 0c bc
       -0.0072354022 -0.017758887 0.00083137985 -0.0085456455
000020 f4 cb d6 3c 28 45 f4 3c a1 54 3a bc 9a 28 10 3a
       0.0262203 0.029818133 -0.011372716 0.0005499214
000030 f0 31 53 bc 16 d0 ba bc bb 0f ad 3b 9d 9e e7 3b
       -0.012890324 -0.022804301 0.0052814162 0.0070684687
000040 11 39 d0 3c 30 ae 31 3d 0e 51 cb 3c 96 af c8 bc
       0.025417836 0.04337901 0.024818923 -0.024497788
000050 b6 c6 9b 3c 7e 04 df 3c 5c 1e 6b bc 47 33 f7 bb
       0.019015651 0.027223822 -0.0143505 -0.0075439545
000060 40 0a 88 bb e7 ab 92 39 38 2e dd 3c 76 1f d8 3c
       -0.0041516125 0.00027975367 0.026999578 0.02638219
000070 2a b3 be bc 67 f6 a0 3c e6 9b e4 bc 99 02 c9 bc
       -0.023278791 0.019648744 -0.02790637 -0.024537371
000080 69 6f 24 3b 99 9a 8c bc 9f ac 9c bb 17 a8 97 bc
       0.002509082 -0.017163562 -0.00478132 -0.018512769
000090 b0 53 a0 3c 3f 19 29 3b c2 34 f8 3c b0 bf 0b 3d
       0.019571155 0.0025802401 0.030298594 0.034118354
0000a0 3e 68 32 bb 58 7d db 3c 84 8c 57 3c 3c ac 39 bc
       -0.0027222778 0.026793167 0.01315606 -0.011332568
0000b0 f3 97 c5 3c fe 76 e9 3c 40 0d 93 3c e9 f4 9f bc
       0.024120307 0.028499123 0.017950654 -0.019525962
0000c0 93 fc 29 bc 9a ed f8 3c 73 d5 2e 3d 41 c0 bd 3c
       -0.01037516 0.030386735 0.04268403 0.023162963
0000d0 7c d5 fd bb c4 de 7e bc b8 30 0a bd c2 13 14 3d
       -0.0077463966 -0.015556041 -0.033737868 0.036151655
0000e0 b6 8b bf bb 70 24 63 ba 6d 65 20 3d 73 99 98 3c
       -0.0058455123 -0.00086647924 0.039159227 0.018627858
0000f0 47 7c dd 3c 75 0e d2 3c d1 20 87 bc 9b 8a 39 bd
       0.0270368 0.02564166 -0.01649514 -0.0452982
000100 13 05 25 3b 5e 18 8e bc 0e 07 78 bb f2 9a 41 3c
       0.0025180026 -0.017345604 -0.0037846002 0.011816727
000110 34 ec cb 3c 98 75 83 bc b4 e4 a3 bc bc e9 e7 3c
       0.024892904 -0.016047284 -0.020006515 0.028309695
000120 c2 c8 2c bd 00 04 36 bc 4f 7e 9a 3c d9 05 4e 3c
       -0.042183645 -0.011109352 0.018859057 0.012574636
000130 01 39 43 bc a3 d8 18 bd 1f ae e8 3c 6b 8a df bc
       -0.011915446 -0.037315976 0.02840334 -0.027287683
000140 ea 59 ba bb 55 10 06 3d 76 d2 b3 bc 56 00 4d bc
       -0.005686988 0.03273042 -0.021950942 -0.012512287
000150 90 91 43 3b a5 0a 9d 3c dc 39 d9 3c 4c 3d 80 bc
       0.00298414 0.019170115 0.026516847 -0.015654229
000160 3a 78 10 bc d5 7b ff bc 26 50 02 3d b9 74 14 3d
       -0.008817727 -0.031186977 0.031814717 0.036244128
000170 fe 0a 33 3c 87 84 cc 3c 14 27 3b 3c bf ff 8e bc
       0.010927914 0.024965538 0.011422891 -0.017455934
000180 3c 27 d9 bc 1c cf 0c 3c ec cc 06 bb 10 42 97 bc
       -0.026507966 0.008594301 -0.002056892 -0.018464118
000190 78 57 0c bc 38 70 15 3c 42 b0 b8 bc 7d da f6 bc
       -0.008565776 0.009120993 -0.022544984 -0.03013348
0001a0 3f 1d 07 bc bd f0 f7 3c 9c c1 ca 3c 0c 90 43 bc
       -0.008246719 0.03026616 0.024750523 -0.011936199
0001b0 bd 5f ab 3c 9e 78 f4 3c cc fb e8 bc b2 1d 63 bc
       0.020919675 0.029842671 -0.028440379 -0.01386206
0001c0 40 06 4d bd 6c 98 00 3c 84 bd b3 3c 18 09 5c 3c
       -0.05005479 0.00784884 0.021940954 0.0134299025
0001d0 1b ca 85 bc 27 50 97 bb 4b c7 64 3c 1b 09 d7 bb
       -0.016331723 -0.004617709 0.013963531 -0.0065623648
0001e0 74 24 de bb fe 60 ec 3c 03 21 c7 3c 37 bd 86 3c
       -0.006779248 0.028854843 0.024307733 0.016447647
0001f0 0c 3f a5 3b e5 a3 ca bc a9 cf 92 3c d8 a6 80 bb
       0.005042916 -0.024736354 0.017921286 -0.0039261393
000200 59 59 e9 bc a0 19 a7 3c f3 25 3e bc 7e 9f 67 bc
       -0.028484987 0.020397961 -0.0116057275 -0.014137147
000210 fc 4e c8 3c a7 3f ef 3b 60 ca f7 bc d2 0a d0 bc
       0.024451725 0.007301289 -0.030247867 -0.025395785
000220 46 46 1b 38 1f 2f 46 3c ce d5 c8 3b 4a 25 ff 3b
       3.7020327e-05 0.0120961955 0.006129003 0.0077864276
000230 2a 3b cb 3c 82 77 54 bc 64 cb d6 bc f4 8c 03 bd
       0.024808485 -0.012967946 -0.026220031 -0.032116845
000240 e4 b8 98 3b 6e 43 a5 3c 8f 95 a9 bc 78 bf 11 bd
       0.0046607126 0.020173755 -0.020701198 -0.03558299
000250 3f 4c 74 bb ef f3 2b 3c d7 09 66 3c 4d 36 c0 3c
       -0.0037276892 0.01049517 0.014040432 0.023463393
000260 f5 33 c2 bc 8f a9 66 3b 4c 35 45 bc ef f4 c1 3c
       -0.023706416 0.003519628 -0.012036633 0.023676364
000270 b3 d3 fa 3b 0a 12 ac 3c 61 60 b4 bb 22 87 39 39
       0.007654631 0.021004695 -0.0055046533 0.00017693316
000280 26 52 5a bc ff 02 00 bd 98 99 ab 3c 4b d2 ba bb
       -0.01332525 -0.031252857 0.020947263 -0.0057013384
000290 8f 59 ce 3c f2 b4 2b 3c 56 20 10 3b b5 12 05 3c
       0.02518919 0.010480152 0.002199193 0.008122136
0002a0 d4 3f 67 3b f4 b3 16 bd e5 59 94 3c f1 e1 f0 bc
       0.0035285847 -0.03679271 0.018109271 -0.029404612
0002b0 c4 a8 86 bc ac 23 86 3c ca 52 ba bb 11 7e 7f 39
       -0.016437896 0.016374432 -0.0056861388 0.00024365658
0002c0 2a 74 14 3d 77 66 8b 3c 6a 1b aa 3c 66 fd 71 3a
       0.036243595 0.017016632 0.020765025 0.000923118
0002d0 70 99 54 bc 41 6b 61 3c 5d 51 8e bb 92 04 b3 3c
       -0.0129760355 0.0137584815 -0.0043431954 0.021852765
0002e0 98 04 be bc 02 56 1d bb 47 58 b6 ba e3 ca 99 3b
       -0.02319555 -0.0024007563 -0.0013911807 0.0046933754
0002f0 5c 4f a2 3c 66 1d ce 3c 4f 35 07 bd 41 83 93 bc
       0.019813232 0.025160503 -0.033009823 -0.018006923
000300 05 41 50 bc 50 e4 5b 3c d6 fa 55 bc b7 92 97 bc
       -0.012710814 0.013421133 -0.013060292 -0.018502576
000310 49 2b 2a 3c 24 35 27 bc 6e 30 1e 3b 13 7b 11 bd
       0.010386297 -0.010205541 0.0024137753 -0.035517763

1.fc2.weight f4 [10, 200]
000000 33 0e 4b bd 4a 5b 06 bc cc b8 8c bd bf 8d ed 3a
       -0.04957409 -0.008200476 -0.06871185 0.0018123909
000010 ec 97 27 3b 07 cf 4c 3d 65 d1 76 bc b4 f0 20 bc
       0.002557273 0.050002124 -0.015064572 -0.009823013
000020 7f c8 ee 3b d6 9c 35 bb 92 fd 27 3c a6 b9 02 bd
       0.0072870846 -0.002771189 0.010253327 -0.03191533
000030 73 89 c1 bc d4 8a 48 3b 06 91 5a bc e8 14 19 bd
       -0.023625111 0.0030600326 -0.01334024 -0.037373453
000040 41 07 9a b9 47 55 3d 3d 73 17 2e bd 11 d1 91 3d
       -0.00029378574 0.046223905 -0.04250283 0.071199544
000050 2f f0 16 3b 6f 9e ab 3c 3c 7f 19 3c 93 89 19 3d
       0.0023031344 0.02094957 0.009368714 0.037484717
000060 0c 47 9d bc 92 e4 19 bd 44 9c 3a bc 54 16 3a 3d
       -0.019198917 -0.037571497 -0.011389796 0.04543145
000070 71 fe 33 3c 05 44 99 bd 2a 7b 13 bb 6e 15 f9 bb
       0.0109859565 -0.07483677 -0.0022503831 -0.0076014316
000080 71 0d 32 bc d8 66 9d 3c 89 3f 80 bd b8 6d d3 bc
       -0.0108674625 0.019214079 -0.06262118 -0.025809154
000090 c5 d5 fe bb 9a c6 e9 3c 1d 75 ca bc ed ca d1 3d
       -0.007776948 0.028537083 -0.024714047 0.10243783
0000a0 43 a6 ec bc a3 7a f6 3c e8 54 88 3c 6c 77 81 3b
       -0.028887874 0.030087775 0.016642049 0.003951004
0000b0 0d b3 2b 3c c6 e4 67 3d e5 8b 28 bd 6f 28 df 3c
       0.010479701 0.05661466 -0.04114904 0.02724096
0000c0 c1 cc de 3c 43 08 b5 3a 2a a2 41 bc c0 5e d0 bc
       0.027197244 0.0013811666 -0.011818448 -0.025435805
0000d0 e8 dd f3 ba 0e 16 80 bc 2c 20 ce 3b 02 83 69 b9
       -0.0018605562 -0.015635516 0.0062904563 -0.00022269416
0000e0 97 57 5f bc 67 d0 87 3c d7 fe bb bd 4e 92 72 3c
       -0.013631723 0.016578866 -0.09179466 0.01480539
0000f0 83 24 ee bc c7 a2 2b 3d 04 38 87 3d 6e 39 eb bb
       -0.029070145 0.041903283 0.06602481 -0.007178477
000100 8d d6 3f 3c 85 e4 c6 bc 39 9f 6d 3c e7 3b 1f bd
       0.011708868 -0.024278888 0.014503294 -0.038875487
000110 47 b9 a3 bc 26 4e b8 3b 7e 5d 0c bc 39 9c 14 3c
       -0.019985808 0.0056245504 -0.008567212 0.0090704495
000120 71 b0 95 bc 3c a2 13 3d bd e9 48 bc 8a ba 7f bc
       -0.01827261 0.03604339 -0.012262759 -0.015608439
000130 eb b3 a6 bc 1c 72 78 3c 44 8a 2f 39 00 13 fb 3c
       -0.020349463 0.015163925 0.00016740808 0.030648708
000140 83 15 2f ba 22 66 bc 3b 65 82 98 3c 09 59 db 3c
       -0.0006678926 0.00574948 0.018616864 0.026775854
000150 41 5c 87 3d d6 3f 57 3a 72 20 c1 bb c5 16 c3 bc
       0.06609393 0.00082111114 -0.0058937604 -0.023814568
000160 f7 47 83 3b 47 95 ed bc b9 9b 1e bc 6a 35 b0 3b
       0.0040063816 -0.029001845 -0.009680682 0.005377461
000170 50 37 02 3c 0e ff b0 3c 44 6c b3 3b 3f 3c c8 bc
       0.007947758 0.021605995 0.0054755528 -0.02444279
000180 6a 9a 92 bc 8f 4b 9a 3a bc 61 a5 3c 82 0f 83 3c
       -0.017895896 0.0011771786 0.020188205 0.015998606
000190 c6 a2 81 bc 2d 83 5f bd 3b 6a 8a bc 11 16 3e 3a
       -0.015824687 -0.05456846 -0.016896358 0.0007251213
0001a0 c8 63 a9 3c ce 93 17 bd 48 e3 0f bd ab cf 14 3d
       0.020677462 -0.037006192 -0.03512886 0.03633086
0001b0 05 90 16 bd 30 0e 99 3d ac a1 99 bc 1b 8a b6 bd
       -0.03675844 0.07473409 -0.018753849 -0.0891306
0001c0 b5 15 1c bd e6 ef 84 bc 44 b9 88 3a d2 b8 7a ba
       -0.03810664 -0.016227674 0.001043119 -0.00095642835
0001d0 68 a7 8d bd 7c 43 5d 3c 09 5e 44 bb 27 e6 75 bc
       -0.06916696 0.013504859 -0.0029963276 -0.015008486
0001e0 76 e0 97 bc 8a 83 b9 bc bf 9c e4 bb c1 30 8e 3c
       -0.018539649 -0.02264573 -0.0069766934 0.017357232
0001f0 e7 04 a4 bd ac 47 da bb f4 d4 01 bd d5 b0 03 3d
       -0.080087475 -0.006661376 -0.03169723 0.032151062
000200 f5 eb 29 bd 76 fa f5 ba 29 4a ec 3c ce 62 e8 3c
       -0.04148479 -0.001876666 0.028843956 0.028367426
000210 67 1e 9d 3c d9 75 19 3d a5 6e 2e bd ee 45 3a 3d
       0.019179536 0.037465904 -0.042585988 0.045476846
000220 bf ca 12 3d 9a c4 81 bc 9b a4 45 bd 3c 4f af bd
       0.035837885 -0.015840817 -0.048252683 -0.08560035
000230 61 6a 2b 3d ee 83 df bc 81 9b f2 3a c4 6a 2c bd
       0.041849498 -0.027284589 0.0018509479 -0.042094007
000240 8c ad e7 3d a0 6a 8a 3b e5 9b bb bc e4 78 67 3b
       0.11312398 0.0042241365 -0.022901485 0.003531986
000250 f2 bc 42 bd 54 fc ac ba d7 d6 4b bb 80 e0 11 bd
       -0.047543474 -0.0013197758 -0.0031103396 -0.03561449
000260 86 37 c3 3b 6e 6f 08 bd 6d c6 a3 bc 5e 7c 82 3c
       0.0059575466 -0.033309393 -0.019992078 0.015928444
000270 fa 46 e2 bb b5 ba 99 bb 84 e0 cd bd e3 1a 6c bc
       -0.0069054337 -0.0046914467 -0.100525886 -0.014410707
000280 48 5b 4b 3b 5b f8 c3 ba 94 9b 69 3d b0 2f 86 bc
       0.003102975 -0.0014951335 0.057033136 -0.016380161
000290 85 70 25 bc d1 c8 95 3b dc d9 69 bc 9c 25 60 3c
       -0.0100976275 0.0045710583 -0.014273133 0.013680842
0002a0 9c 2a 55 3c 9e 83 0f bd 14 5d ad 3d 64 27 8d bc
       0.013010647 -0.03503763 0.08465019 -0.017230697
0002b0 2e 64 7a bc 95 7f 25 3d ba 56 de 38 a5 44 f6 bc
       -0.015282674 0.040404875 0.00010601939 -0.03006203
0002c0 69 d2 2f 3d 6e b4 2c bd 4a ad 37 3c ae 24 6e 3c
       0.042925272 -0.04216426 0.011210749 0.014535112
0002d0 ae 57 73 3d 50 70 26 bd 93 b5 47 3b 98 20 91 3c
       0.05940979 -0.040634453 0.0030473217 0.017715737
0002e0 df a0 0b 3d 55 ff 4c 3d b3 3c a7 bc f9 fa f0 bb
       0.034088966 0.05004819 -0.020414686 -0.007354137
0002f0 a5 ce 01 3b 9c 6e 03 bc 48 2b d3 3c 9e 24 13 bd
       0.0019807008 -0.008021977 0.025777474 -0.035923593
000300 e0 98 e2 bc 5d 44 8b bc 8b 7b 6c bc 13 7c 3f bd
       -0.027660787 -0.017000372 -0.014433752 -0.046749186
000310 76 d0 f9 b9 3c e1 ea b9 0b 68 c2 bc 4d 62 09 bb
       -0.00047648296 -0.0004479977 -0.023731252 -0.0020963133
000320 10 63 a9 3d 28 b0 f9 bb 2c 7f e5 3d 7d 03 93 3d
       0.08270848 -0.0076198764 0.11205897 0.071784
000330 32 a7 c2 bc f0 9d 60 3c 5d 34 e8 bb cc bb 19 bd
       -0.023761366 0.01370953 -0.0070863203 -0.037532613
000340 5e 73 7d bc bc 32 e1 3b 10 f9 f0 bc 68 5b 41 bd
       -0.0154694 0.006872503 -0.029415637 -0.047206312
000350 0f ab 4d 3d 17 3c 8e b9 2c 80 03 bd 5d 95 29 bd
       0.050211962 -0.0002712912 -0.032104656 -0.04140221
000360 81 ff 02 bb b8 57 95 bb aa 03 6d bd 8a 83 4c 3c
       -0.0019988718 -0.004557576 -0.057864822 0.012482533
000370 e7 f7 c1 3c 8d a4 b5 bc d9 ef 92 3c 43 b7 ea 3c
       0.02367778 -0.02217319 0.017936634 0.02865184
000380 4f 65 04 bd 1b 1a 90 bc 16 32 92 bb 35 aa 37 3d
       -0.032323178 -0.017590573 -0.004461537 0.044840056
000390 cb 3c 42 bc 8d e8 86 bc 64 aa a1 bc d3 56 4b 3d
       -0.0118553145 -0.01646831 -0.019734569 0.04964335
0003a0 96 8a 97 bc f0 5f d9 bc b9 62 cf 3c 18 52 01 bd
       -0.0184987 -0.026535004 0.02531563 -0.03157243
0003b0 33 aa 04 bc 9a 6b 07 3b 39 4b 7e b9 ba a0 68 bd
       -0.008097219 0.00206635 -0.0002425135 -0.056793906
0003c0 83 5b cd bc d6 58 87 3b c4 70 c4 bb 4b 3a e6 bc
       -0.02506805 0.004130463 -0.005994888 -0.028103968
0003d0 6d 0d 91 bc bf a7 41 bd d1 88 04 bc a1 60 07 3c
       -0.017706597 -0.047279116 -0.00808926 0.008262784
0003e0 cb 8d 01 bc e6 f6 49 bc c5 eb e6 3c af d7 74 3b
       -0.007907341 -0.012326932 0.028188596 0.0037360003
0003f0 11 cb 00 bc f5 2c b2 bc 6e a2 af bb 71 3e 82 bb
       -0.007860915 -0.021749953 -0.0053599393 -0.0039747288

1.fc2.bias f4 [10]
000000 a4 a0 69 3c 5d 79 17 3e 75 e1 92 bc e1 65 2d bb
       0.014259491 0.1479239 -0.017929772 -0.002645843
000010 73 15 e9 bb a6 3c 02 bc d5 2d 45 bc 87 06 cb 3c
       -0.0071131526 -0.00794903 -0.012034853 0.024783386
000020 b8 d6 92 bd ca ff 06 bd
       -0.071698606 -0.032958783
