HW2/weights.pt (torch, 182464 bytes, 8 tensors)

fc1.weight f4 [50, 784]
0.027304951 0.029643144 -0.008366875 0.032807548 -0.007825129 0.0072068125 -0.01738768 0.020974383
0.031483676 -0.026201006 0.031042721 0.0066842623 0.026387416 0.0048446553 0.017226378 -0.0050423127
0.027531635 0.005278889 -0.016672855 0.0091035105 -0.016454881 -0.004188318 -0.014505655 0.023691822
-0.028191794 -0.016464656 -0.010084813 -0.021474019 0.0033708252 -0.035274256 0.032253895 -0.030338153
0.027572503 0.005944004 -0.011577995 0.022113128 0.0056083896 0.028890952 0.0039679473 -0.011173939
0.009722181 -0.009591462 0.015152556 0.03204037 0.020747954 -0.015572662 0.02062478 0.0064006327
0.018145392 -0.02176477 -0.035347383 -0.013793712 -0.027393674 0.029304963 0.010286834 0.01479334
0.011295043 -0.0006212853 0.027950164 -0.025374902 0.0022508225 -0.024374273 0.011033997 -0.012217845
0.011071966 -0.007215549 0.030057352 -0.020537378 -0.02048541 -0.02030798 0.03329337 0.013231305
0.03554218 -0.028648468 -0.034935873 -0.027635159 -0.023840897 0.014532845 0.012818805 0.029690748
-0.01843732 -0.024344819 0.018949222 -0.014435874 0.021675851 -0.008475022 0.020431884 -0.027741617
-0.018018262 0.0108874515 0.0075969975 -0.008982879 0.021481955 0.024758158 -0.025154872 -0.018214682
0.033812575 -0.01021749 -0.0105809225 -0.03233052 -0.018794078 0.009758299 -0.004438046 -0.025892168
0.0008296121 -0.02445026 -0.030333728 -0.019687539 -0.031280577 -0.022760617 0.035692114 0.006745536
0.011005703 -0.033310674 -0.023449888 -0.011887926 0.0055257063 -0.031541497 -0.015570236 -0.021751186
-0.00039051566 -0.013713841 -0.0022631509 -0.022347225 -0.018234402 -0.009530011 0.0019896317 -0.014507618
0.04120708 0.0026444 0.038841054 0.018061008 -0.025519736 0.026771734 -0.009813402 -0.014518227
-0.030402247 -0.035765953 0.010205238 -0.0078026294 0.013904396 -0.02930941 0.026526863 -0.026243782
-0.006395984 0.006753423 0.017074928 0.026865173 0.029990532 -0.031032212 0.0075538345 -0.012855273
0.006277709 -0.0073052514 0.058303967 0.00066095544 0.042473074 0.03319745 0.030362396 -0.0040089022
0.042117033 0.01183946 0.004235426 -0.03352776 0.013215612 -0.006128827 -0.016437875 0.03067164
0.007962458 -0.019760054 -0.018104622 -0.0018622932 0.019298486 -0.010904082 -0.023650233 -0.016840255
-0.032992225 0.0053817853 0.021303834 -0.034723453 0.015661003 0.036380276 0.032092568 0.014466307
0.041424904 0.038317792 0.03160225 0.008422851 -0.00091052026 0.0062800655 -0.008201819 -0.014144813
0.019973928 0.029375162 -0.003731966 -0.008015436 0.0005211532 -0.0021436317 0.008554465 0.009681791
-0.033565912 -0.016320651 0.024625052 0.0057973205 -0.012311903 -0.033072002 -0.031780776 -0.037063114
-0.008686352 0.02578305 0.04375011 0.03772874 -0.01689364 -0.011118718 0.00279594 0.04040812
0.0076983063 -0.009767096 0.012033601 -0.017885461 -0.026658019 0.024245864 -0.016485127 -0.0071767727
-0.035529025 0.023898117 0.026983256 0.012604701 -0.026278848 -0.038784478 -0.03529117 0.016976621
0.005586451 0.019475482 0.010713392 0.0035574278 -0.00026483097 -0.01679294 -0.011549 -0.014183368
0.024738904 -0.0150944665 -0.008629203 -0.023068188 -0.009776916 -0.02857536 -0.027270295 0.006995797
-0.014764966 0.019907568 -0.011710881 -0.026185859 -0.00630139 -0.017315561 -0.011044204 -0.034386877
00000000: a2ae df3c 2ed6 f23c 3815 09bc 3561 063d
00000010: f834 00bc 2027 ec3b 9c70 8ebc 78d2 ab3c
00000020: 07f5 003d 7ea3 d6bc 4e4d fe3c a807 db3b
00000030: 6c2a d83c eabf 9e3b 551e 8d3c fc39 a5bb
00000040: 068a e13c 88fa ac3b 8395 88bc e426 153c
00000050: 63cc 86bc 283e 89bb 20a9 6dbc 5a15 c23c
00000060: 7af2 e6bc e3e0 86bc c63a 25bc 48ea afbc
00000070: 10e9 5c3b bd7b 10bd a91c 043d b887 f8bc
00000080: bbdf e13c ebc5 c23b a1b1 3dbc 9726 b53c
00000090: 95c6 b73b b8ac ec3c 8e05 823b e612 37bc
000000a0: c849 1f3c 8225 1dbc 6d42 783c c33c 033d
000000b0: 9df7 a93c 7b24 7fbc 4cf5 a83c 66bc d13b
000000c0: a5a5 943c 084c b2bc 6bc8 10bd 05ff 61bc
000000d0: b368 e0bc f610 f03c 1c8a 283c c45f 723c
000000e0: d80e 393c c0dd 22ba bef7 e43c 07df cfbc
000000f0: 8982 133b 8eac c7bc f0c7 343c 5b2d 48bc
00000100: 3167 353c 6970 ecbb d63a f63c 013e a8bc
00000110: 05d1 a7bc ec5c a6bc a15e 083d 1ec8 583c
00000120: ad94 113d 31b0 eabc eb18 0fbd 2163 e2bc
00000130: fc4d c3bc 2b1b 6e3c f705 523c 033a f33c
00000140: dd09 97bc c96e c7bc 663b 9b3c 7284 6cbc
00000150: 8e91 b13c d2da 0abc c460 a73c 6342 e3bc
00000160: 099b 93bc 4861 323c 3cf0 f83b ed2c 13bc
00000170: edfa af3c 9fd1 ca3c 9711 cebc f536 95bc
00000180: 0e7f 0a3d 4267 27bc 9b5b 2dbc 026d 04bd
00000190: 0af6 99bc 46e1 1f3c 076d 91bb d01b d4bc
000001a0: 537a 593a e94b c8bc 707e f8bc c347 a1bc
000001b0: 1020 00bd 7974 babc e531 123d a809 dd3b
000001c0: 4451 343c c670 08bd fb19 c0bc 93c5 42bc
000001d0: fc10 b53b a831 01bd 4e1a 7fbc 8b2f b2bc
000001e0: 20be ccb9 05b0 60bc 5f51 14bb 8711 b7bc
000001f0: 5060 95bc c323 1cbc 7b64 023b 5cb1 6dbc
00000200: c1c8 283d ac4d 2d3b cc17 1f3d aef4 933c
00000210: c40e d1bc 6550 db3c 64c8 20bc dcdd 6dbc
00000220: 220e f9bc 527f 12bd df33 273c 33ad ffbb
00000230: 44cf 633c 4a1a f0bc dd4e d93c 33fd d6bc
00000240: 6795 d1bb d14b dd3b b8e0 8b3c 5a14 dc3c
00000250: b4ae f53c 4437 febc 2886 f73b ec9e 52bc
00000260: 3db5 cd3b e460 efbb 24d0 6e3d f843 2d3a
00000270: 3ff8 2d3d 0dfa 073d 8fba f83c 1c5d 83bb
00000280: e982 2c3d 4bfa 413c 54c9 8a3b 6854 09bd
00000290: 4b86 583c 54d4 c8bb b9a8 86bc 1743 fb3c
000002a0: f874 023c d6df a1bc 2550 94bc 3118 f4ba
000002b0: dc17 9e3c 09a7 32bc 22be c1bc 93f4 89bc
000002c0: db22 07bd b059 b03b 6185 ae3c 2e3a 0ebd
000002d0: 814b 803c 7c03 153d 7f73 033d 1704 6d3c
000002e0: 29ad 293d 1ef3 1c3d 5c71 013d ffff 093c
000002f0: fbaf 6eba 02c9 cd3b ec60 06bc a5bf 67bc
00000300: 5da0 a33c 2ea4 f03c 0094 74bb 2d53 03bc
00000310: 009e 083a 2c7c 0cbb 0728 0c3c 60a0 1e3c
00000320: 697c 09bd e3b2 85bc 7aba c93c 73f7 bd3b
00000330: ddb7 49bc 8276 07bd 8f2c 02bd 7ecf 17bd
00000340: 3351 0ebc fa36 d33c 5133 333d 7489 1a3d
00000350: 8864 8abc 492b 36bc 173c 373b fc82 253d
00000360: 1342 fc3b 2b06 20bc 9528 453c 8884 92bc
00000370: eb61 dabc 439f c63c d10b 87bc 222b ebbb
00000380: e286 11bd fcc5 c33c fd0b dd3c f383 4e3c
00000390: bd46 d7bc 79dc 1ebd 798d 10bd 8e12 8b3c
000003a0: 8c0e b73b 0c8b 9f3c 3987 2f3c bc23 693b
000003b0: 03d9 8ab9 5991 89bc 0438 3dbc 5b61 68bc
000003c0: 3ea9 ca3c c84e 77bc 8061 0dbc 7ff9 bcbc
000003d0: 5c2f 20bc e016 eabc f465 dfbc 003d e53b
000003e0: c2e8 71bc 3215 a33c ffde 3fbc ba83 d6bc
000003f0: e47b cebb 5dd9 8dbc c0f2 34bc 41d9 0cbd

fc1.bias f4 [50]
0.025794832 8.413107e-05 0.055018146 0.016003015 0.05860172 0.08063249 0.025082033 0.055021998
0.021667853 0.0033991458 0.06970956 0.029498257 0.026415238 -0.00030099804 0.04531944 0.057539843
0.056706753 0.009336005 -0.027681354 -0.002576464 0.05931146 0.03245619 -0.028077515 0.023368988
0.024700519 -0.0034682213 0.066428274 0.057889078 0.08241783 0.012338175 0.011792901 0.0044650217
0.0010307106 0.020686038 0.052991156 0.006485367 -0.01639551 -0.012990613 -0.0038628022 0.058520414
0.014650411 0.07521677 0.010092134 0.047083188 0.026387358 0.004061407 -0.011035479 0.010661315
0.02478207 0.031450413
00000000: af4f d33c 866f b038 b55a 613d c118 833c
00000010: 5b08 703d a622 a53d d678 cd3c bf5e 613d
00000020: c880 b13c 34c4 5e3b e3c3 8e3d 54a6 f13c
00000030: c564 d83c 46cf 9db9 e1a0 393d e6ae 6b3d
00000040: 5745 683d 0bf6 183c 02c4 e2bc e5d9 28bb
00000050: 93f0 723d c8f0 043d d102 e6bc 5270 bf3c
00000060: be58 ca3c 194b 63bb 8c0b 883d 191d 6d3d
00000070: aeca a83d 0f26 4a3c 0337 413c 514f 923b
00000080: e918 873a c475 a93c 410d 593d 3483 d43b
00000090: e04f 86bc 94d6 54bc 1127 7dbb 1ab3 6f3d
000000a0: 4708 703c 400b 9a3d 7a59 253c 4dda 403d
000000b0: 4d2a d83c 8d15 853b 27ce 34bc ccac 2e3c
000000c0: c503 cb3c 26d2 003d

fc2.weight f4 [50, 50]
-0.09042598 -0.050648708 -0.13194637 -0.08964082 0.049837984 0.18950063 0.13112059 0.15786554
-0.10368521 0.129421 0.033633493 0.10289698 0.10662746 0.00071383343 -0.0023450768 0.14747155
0.1324662 0.025758099 -0.08952162 -0.13736184 0.18912882 -0.009287943 -0.041096963 0.028545495
0.14632179 -0.12852575 0.13993944 0.21452029 -0.092407204 -0.12367381 0.0050127357 -0.14600283
0.04968568 0.08071604 0.15840644 0.010609911 0.08801381 -0.09796311 0.0006806537 0.0047290493
0.00037649513 0.011181721 0.1193368 0.010952164 -0.030453475 0.016586244 0.0070180916 -0.04276359
0.013465555 0.016674435 -0.12285464 -0.03279441 -0.005021722 0.0104807 0.12099924 0.0263733
-0.11837149 0.060916703 0.11938675 -0.1404847 -0.07119229 -0.14636803 0.100288905 -0.09050095
0.11090225 0.09576266 0.018870138 -0.065765396 -0.0009160749 -0.07879469 -0.1334929 -0.099197544
-0.04238513 0.0204246 0.09715972 -0.008686676 -0.020967036 -0.06578763 0.10241405 0.006831066
-0.12305373 -0.12787473 0.12413796 0.009545785 0.12488542 -0.0072539356 0.03990361 -0.13463472
-0.09902983 0.13015482 -0.09230976 -0.077681735 -0.0025409264 -0.009830204 -0.130348 0.09213599
-0.14131951 -0.07162477 0.12267268 0.08132549 -0.023257194 0.09513316 -0.10501416 0.17582422
0.07200208 0.06871458 0.12273897 0.21209976 -0.12329745 0.2523033 -0.06277657 -0.049674317
0.04379204 0.11436505 0.22177576 0.25098276 -0.06683487 0.27242473 0.02441857 0.12500852
0.1951611 0.053336404 0.08731897 -0.054107536 -0.15073894 0.083911486 0.17378141 0.129994
-0.10445632 -0.19141068 -0.11664809 0.17450818 0.17383806 0.14322199 0.18051116 0.0867935
0.054814883 -0.1636718 0.1347144 0.052439023 -0.13494615 0.039508604 0.07427443 -0.13745978
0.105235994 -0.097257495 -0.04388287 -0.08543625 0.12889884 -0.18304755 -0.04913126 0.09870802
-0.013276231 -0.021011954 -0.085013255 0.058634046 0.00082640076 -0.07491024 -0.048399225 0.0008381821
-0.064652964 0.013140093 -0.061039817 0.118805446 0.09969525 -0.061364427 0.0033791554 0.028611952
0.031050168 -0.058305662 -0.09996751 -0.1328306 -0.11764238 -0.031262774 -0.039108407 -0.110518046
0.1036434 -0.050115556 0.1009751 0.117406555 -0.12212122 -0.078288354 -0.07950005 -0.1222226
-0.12285863 0.11477455 0.016879868 0.08045233 -0.09483532 -0.060726408 -0.1243532 0.04577998
-0.09692278 -0.0644712 -0.040780924 -0.10642059 0.0785357 -0.085517615 0.10668682 -0.084885076
-0.034288224 0.11033459 -0.07945384 -0.118858896 0.019347595 0.13413301 -0.049642105 0.09941139
0.0068801725 -0.057002734 0.033478312 -0.070561856 0.047114972 0.047371767 0.0019329742 0.072828345
0.14415807 -0.07889546 0.023541287 0.02781789 0.13464664 -0.11383675 -0.058290984 0.017932855
-0.13529892 -0.10224601 -0.15359308 -0.07687792 0.052243177 0.067710295 0.08332918 -0.15642364
0.05874186 0.28239048 -0.012268397 0.09186601 -0.12248725 0.12170307 0.067571975 0.016382625
-0.054169577 0.1102654 -0.10655455 0.017491 0.010106113 -0.12630583 0.03408838 0.031498536
0.073041536 0.11962526 0.04451339 0.06553109 0.043150373 -0.098197944 0.0058055986 0.020176586
00000000: 4231 b9bd 0575 4fbd f31c 07be 9b95 b7bd
00000010: ea22 4c3d 740c 423e 7a44 063e 81a7 213e
00000020: e958 d4bd f086 043e 46c3 093d a7bb d23d
00000030: 7f5f da3d 8d20 3b3a dcaf 19bb c802 173e
00000040: 38a5 073e a602 d33c 1c57 b7bd 95a8 0cbe
00000050: fcaa 413e 752c 18bc 4a55 28bd 3ed8 e93c
00000060: 61d5 153e 419c 03be 494c 0f3e 35ab 5b3e
00000070: fd3f bdbd b248 fdbd e041 a43b c481 15be
00000080: 3683 4b3d 744e a53d 4c35 223e 31d5 2d3c
00000090: 9640 b43d e2a0 c8bd e66d 323a 24f6 9a3b
000000a0: 5264 c539 8a33 373c da66 f43d b570 333c
000000b0: 9179 f9bc e0df 873c 05f8 e53b e028 2fbd
000000c0: a29e 5c3c d398 883c 379b fbbd 6e53 06bd
000000d0: 428d a4bb 3eb7 2b3c 73ce f73d d20c d83c
000000e0: c06c f2bd cb83 793d 0a81 f43d 39db 0fbe
000000f0: 43cd 91bd 80e1 15be 4564 cd3d 9058 b9bd
00000100: b820 e33d 371f c43d 8c95 9a3c 02b0 86bd
00000110: bf24 70ba 1c5f a1bd 5db2 08be 1528 cbbd
00000120: 089c 2dbd 7e51 a73c adfb c63d 8f52 0ebc
00000130: 10c3 abbc aabb 86bd 75be d13d 23d7 df3b
00000140: 9803 fcbd 98f1 02be 0b3c fe3d ed65 1c3c
00000150: edc3 ff3d 6cb2 edbb f871 233d afdd 09be
00000160: 27d0 cabd 4e47 053e e60c bdbd 9a17 9fbd
00000170: ac85 26bb dd0e 21bc f279 05be cbb1 bc3d
00000180: 10b6 10be 02b0 92bd d03b fb3d fa8d a63d
00000190: df85 bebc 2dd5 c23d aa11 d7bd 440b 343e
000001a0: d475 933d 3bba 8c3d 925e fb3d ae30 593e
000001b0: 6083 fcbd e62d 813e 0191 80bd 4c77 4bbd
000001c0: 485f 333d 3938 ea3d 2f19 633e d080 803e
000001d0: b8e0 88bd 417b 8b3e 7409 c83c 3c02 003e
000001e0: 50d8 473e 4677 5a3d 4ad4 b23d dd9f 5dbd
000001f0: 4f5b 1abe c9d9 ab3d c1f3 313e 261d 053e
00000200: 32ed d5bd 2901 44be 32e5 eebd 46b2 323e
00000210: 9b02 323e c9a8 123e ebd7 383e cac0 b13d
00000220: 9285 603d 9599 27be 92f2 093e 4dca 563d
00000230: 532f 0abe c6d3 213d 311d 983d 42c2 0cbe
00000240: f885 d73d f02e c7bd 86be 33bd 33f9 aebd
00000250: 0ffe 033e d170 3bbe dc3d 49bd 6e27 ca3d
00000260: 8c84 59bc 4321 acbc 6e1b aebd 412a 703d
00000270: d1a2 583a 8a6a 99bd 443e 46bd 73b9 5b3a
00000280: c668 84bd 8b49 573c e304 7abd 4550 f33d
00000290: 062d cc3d 4459 7bbd d274 5d3b 9d63 ea3c
000002a0: ec5c fe3c ebd1 6ebd c4bb ccbd bf04 08be
000002b0: 7dee f0bd 650d 00bd 2330 20bd 4957 e2bd
000002c0: fe42 d43d f845 4dbd 09cc ce3d d972 f03d
000002d0: b11a fabd a555 a0bd ecd0 a2bd d84f fabd
000002e0: 4e9d fbbd eb0e eb3d a647 8a3c 31c4 a43d
000002f0: 0539 c2bd 41bc 78bd e4ac febd ca83 3b3d
00000300: 737f c6bd 7a09 84bd e609 27bd 0af3 d9bd
00000310: 53d7 a03d dc23 afbd 9f7e da3d 3ad8 adbd
00000320: cf71 0cbd 1af7 e13d b2b8 a2bd 4b6c f3bd
00000330: d97e 9e3c 2a5a 093e 8555 4bbd 3398 cb3d
00000340: 1273 e13b b37b 69bd 8e20 093d bc82 90bd
00000350: a1fb 403d e608 423d da5b fd3a 0727 953d
00000360: 2c9e 133e f193 a1bd a8d9 c03c 58e2 e33c
00000370: cfe0 093e 3e23 e9bd 87c2 6ebd ece7 923c
00000380: cd8b 0abe 5b66 d1bd 8147 1dbe 2c72 9dbd
00000390: f1fc 553d b2ab 8a3d 7da8 aa3d 852d 20be
000003a0: 4e9b 703d 7c95 903e 6301 49bc 3f24 bc3d
000003b0: 98da fabd 763f f93d 2d63 8a3d db34 863c
000003c0: ebe0 5dbd d3d2 e13d 4639 dabd 4949 8f3c
000003d0: 1c94 253c 5156 01be 42a0 0b3d 9c04 013d
000003e0: cd96 953d 17fe f43d ac53 363d 2a35 863d
000003f0: 72be 303d 011c c9bd e43c be3b 5e49 a53c

fc2.bias f4 [50]
-0.014776809 -0.07174462 0.07319166 -0.019450493 0.12712814 0.103329666 -0.0123427855 0.042382926
-0.13172181 0.052034378 7.6129018e-06 0.08992915 0.13252477 -0.11516005 0.16177265 -0.115931705
0.0021444282 0.056693077 0.12241613 0.0092345085 -0.045341153 0.030381966 -0.07816494 0.1774213
-0.05270828 -0.14072725 -0.01453529 0.2013815 0.036915626 -0.003672933 -0.04756147 0.12725191
0.14478622 -0.12619352 -0.12343925 0.17785667 -0.13560909 0.017448332 0.17793314 0.11962799
0.050994966 0.016654534 0.007884197 -0.05891548 -0.06631267 0.03605553 0.09352743 -0.053688675
0.13472353 0.05384237
00000000: 6e1a 72bc d8ee 92bd 82e5 953d a456 9fbc
00000010: e12d 023e 819e d33d 6539 4abc b899 2d3d
00000020: 15e2 06be 0022 553d 5472 ff36 c62c b83d
00000030: 93b4 073e 08d9 ebbd bba7 253e 9a6d edbd
00000040: 8989 0c3b 0037 683d 4fb5 fa3d 564c 173c
00000050: a5b7 39bd 9ae3 f83c f114 a0bd eead 353e
00000060: a3e4 57bd ce1a 10be 6d25 6ebc f436 4e3e
00000070: d734 173d 97b5 70bb d1cf 42bd 534e 023e
00000080: d742 143e e038 01be b8cd fcbd 0f20 363e
00000090: 1cdd 0abe ceef 8e3c 1b34 363e 85ff f43d
000000a0: 19e0 503d 176f 883c b82c 013c 5c51 71bd
000000b0: f0ce 87bd f7ae 133d 4f8b bf3d a8e8 5bbd
000000c0: f7f4 093e d189 5c3d

fc3.weight f4 [50, 50]
0.028882936 -0.054746304 0.07236214 -0.015489563 -0.08398646 -0.054112855 -0.11947611 -0.12714279
-0.053067558 0.13865463 0.0013522501 0.045145385 0.10401995 -0.072854586 -0.10633565 -0.110733435
-0.13951474 -0.012321599 0.05662156 -0.053672493 0.05450979 -0.0803962 -0.101611435 0.121978775
0.031314462 0.09815581 -0.062788166 0.04846654 -0.12938821 -0.13378704 -0.042557146 0.108839035
0.016004473 -0.12640037 -0.070763364 0.121758245 0.10628066 -0.0927536 -0.090447605 0.010709908
-0.083900295 -0.0026363619 -0.04338366 0.051522113 0.037066303 0.11323812 0.004067983 -0.1128666
-0.13761538 -0.119025506 -0.06243152 0.06725777 0.06932628 0.059682455 0.093559064 -0.08849286
-0.024619393 0.07733187 0.051783428 0.06110713 -0.12650618 0.17842808 -0.02044014 -0.13896525
-0.057906166 0.08652276 0.038137518 0.019967392 0.17281325 0.14514837 0.11773193 -0.005213175
-0.16140057 -0.0016005607 0.013115502 0.03270506 -0.10641713 0.095552966 -0.124179505 0.056966968
0.07694295 0.0030964946 0.022973113 -0.07797656 -0.09591767 -0.043050244 -0.040103834 -0.03532539
-0.0840871 0.03538293 0.0024757306 0.097929254 -0.12595999 -0.12946115 0.09562945 -0.026587067
0.11638419 -0.020391263 0.17746635 0.20327578 0.05235435 -0.060048252 -0.14088984 -0.062223807
-0.002036348 -0.06399805 -0.13046291 0.11635865 -0.10294906 -0.04761689 -0.005957827 -0.048954524
-0.11895311 -0.13456888 0.09925334 0.042275712 -0.13095492 -0.075691886 -0.015175372 -0.08037644
0.08753872 0.029540092 -0.038789347 -0.009013042 -0.09686424 -0.10324916 0.116937056 0.05779122
-0.0956146 0.03393349 -0.07949191 0.09844069 -0.060675666 -0.00857763 0.03281854 -0.028932445
-0.010824293 -0.043255664 -0.10766162 -0.06303176 0.023079336 -0.0037404448 -0.09079753 0.13201882
-0.0459183 0.11760624 0.106714085 -0.122676075 -0.06459762 -0.022363506 -0.10439534 -0.08709149
-0.100786224 -0.09979445 -0.0307085 -0.09712529 -0.07221622 -0.12769935 -0.061402433 0.13805075
0.024671018 0.13083746 -0.08064473 0.037585378 -0.10855365 0.041100398 0.12645157 -0.07866895
0.06688516 -0.013367012 -0.11345627 0.049249053 -0.069285564 -0.06460507 -0.10195561 0.07218017
-0.05245413 -0.088100746 -0.09313712 -0.054521285 0.038916126 0.064676344 0.06478557 0.078602
-0.06988472 -0.009441525 0.010178417 0.043969423 0.01605463 0.025160864 0.041588858 0.052001134
0.09475663 -0.026704326 -0.057362705 0.01272361 -0.07129163 -0.08411652 0.07359263 -0.114256844
0.119358726 0.05305539 -0.10971506 0.09293787 0.1281373 -0.07671292 0.041273937 0.112229355
-0.1278291 -0.17087218 -0.087446064 0.13195245 -0.015117613 0.09672536 -0.09209219 -0.035764255
-0.13737646 0.17395496 -0.059403665 0.15486267 -0.10988462 0.06184447 -0.15583457 0.057486612
-0.08090717 0.15892941 -0.0596508 0.17559445 -0.07111379 0.07362417 0.15404534 -0.107583664
-0.05924526 0.13594098 -0.044266637 0.09377256 0.0749366 -0.16395943 0.10029957 -0.008634419
-0.057262834 -0.14531134 0.03454422 0.105765894 -0.12823384 0.008986931 -0.13545825 0.10681924
0.06642438 0.14294474 0.003026009 -0.021757945 -0.028171238 0.0017501563 0.05132843 0.101350084
00000000: e89b ec3c a93d 60bd 9a32 943d f0c7 7dbc
00000010: 1801 acbd 71a5 5dbd e4af f4bd b831 02be
00000020: 5e5d 59bd 7bfb 0d3e fc3d b13a 5eea 383d
00000030: 6908 d53d c934 95bd 81c6 d9bd 36c8 e2bd
00000040: f4dc 0ebe 88e0 49bc 02ec 673d b0d7 5bbd
00000050: a845 5f3d c3a6 a4bd a819 d0bd 02d0 f93d
00000060: 9843 003d ea05 c93d 1597 80bd da84 463d
00000070: 587e 04be 78ff 08be 6750 2ebd 00e7 de3d
00000080: d01b 833c 196f 01be 62ec 90bd 635c f93d
00000090: ada9 d93d 99f5 bdbd 983c b9bd 9c78 2f3c
000000a0: ebd3 abbd d0c6 2cbb 11b3 31bd da08 533d
000000b0: d6d2 173d 63e9 e73d b74c 853b 9b26 e7bd
000000c0: 0ceb 0cbe a5c3 f3bd 32b8 7fbd 71be 893d
000000d0: f0fa 8d3d 9775 743d e59b bf3d bf3b b5bd
000000e0: 9cae c9bc 2c60 9e3d dc1a 543d 784b 7a3d
000000f0: d68a 01be dab5 363e 1572 a7bc e84c 0ebe
00000100: 042f 6dbd d832 b13d 1636 1c3d a892 a33c
00000110: f5f5 303e c6a1 143e 701d f13d 48d3 aabb
00000120: 3146 25be e8c9 d1ba 67e2 563c bef5 053d
00000130: 39f1 d9bd 46b1 c33d d351 febd 3256 693d
00000140: 4494 9d3d 8fee 4a3b 1c32 bc3c 2db2 9fbd
00000150: 7c70 c4bd 7455 30bd eb43 24bd 5bb1 10bd
00000160: dc35 acbd b1ed 103d de3f 223b 228f c83d
00000170: a8fb 00be 7791 04be 60d9 c33d 1fcd d9bc
00000180: d65a ee3d 940b a7bc bdb9 353e 8727 503e
00000190: 8471 563d 28f5 75bd 6d45 10be 64de 7ebd
000001a0: 4074 05bb 6911 83bd 1298 05be 724d ee3d
000001b0: f5d6 d2bd ee09 43bd e039 c3bb 8a84 48bd
000001c0: b09d f3bd 6dcc 09be 5645 cb3d 4c29 2d3d
000001d0: 0c19 06be 5904 9bbd 20a2 78bc 679c a4bd
000001e0: 8047 b33d 10fe f13c 94e1 1ebd 70ab 13bc
000001f0: c260 c6bd 4c74 d3bd b27c ef3d 7cb6 6c3d
00000200: 96d1 c3bd d8fd 0a3d a8cc a2bd 469b c93d
00000210: 0c87 78bd 3089 0cbc bc6c 063d bc03 edbc
00000220: 6058 31bc da2c 31bd b27d dcbd cc16 81bd
00000230: e010 bd3c 4022 75bb 0ef4 b9bd f12f 073e
00000240: d414 3cbd 8adb f03d ea8c da3d 983d fbbd
00000250: c24b 84bd ac33 b7bc 39cd d5bd 065d b2bd
00000260: 0269 cebd 0861 ccbd 6490 fbbc a0e9 c6bd
00000270: 19e6 93bd 9ec3 02be 1e81 7bbd 2d5d 0d3e
00000280: e01a ca3c 41fa 053e 1029 a5bd 20f3 193d
00000290: 6051 debd e458 283d 857c 013e 301d a1bd
000002a0: 16fb 883d 5001 5bbc c35b e8bd 60b9 493d
000002b0: 97e5 8dbd aa4f 84bd 1ace d0bd 32d3 933d
000002c0: 24da 56bd 2a6e b4bd adbe bebd b651 5fbd
000002d0: 8466 1f3d 0875 843d 4cae 843d 16fa a03d
000002e0: b81f 8fbd a0b0 1abc 60c3 263c 4819 343d
000002f0: 0085 833c 281e ce3c 1459 2a3d 24ff 543d
00000300: c40f c23d 08c3 dabc 28f5 6abd b076 503c
00000310: 5901 92bd 4845 acbd bcb7 963d 7eff e9bd
00000320: 5972 f43d 9c50 593d 4ab2 e0bd 3656 be3d
00000330: 6d36 033e aa1b 9dbd dc0e 293d 81d8 e53d
00000340: a2e5 02be 1ef9 2ebe ec16 b3bd 8b1e 073e
00000350: ddaf 77bc f217 c63d d59a bcbd 8a7d 12bd
00000360: 6aac 0cbe 4021 323e 4251 73bd 5294 1e3e
00000370: 300b e1bd a150 7d3d 1993 1fbe 1577 6b3d
00000380: a9b2 a5bd 64be 223e 6654 74bd 08cf 333e
00000390: 1ba4 91bd 45c8 963d 10be 1d3e d354 dcbd
000003a0: 28ab 72bd 1d34 0b3e ef50 35bd d40b c03d
000003b0: 5c78 993d fbe4 27be dc69 cd3d 6177 0dbc
000003c0: 6f8c 6abd 7fcc 14be 3d7e 0d3d ca9b d83d
000003d0: bb4f 03be ec3d 133c 91b5 0abe 0cc4 da3d
000003e0: 8109 883d 1b60 123e 0250 463b b83d b2bc
000003f0: 5ec7 e6bc 8065 e53a c33d 523d a290 cf3d

fc3.bias f4 [50]
-0.057001658 0.14411788 -0.017943263 -0.10902244 0.14485183 -0.12845281 -0.080752574 0.114762336
0.001501882 0.19275957 -0.021005044 -0.039994374 -0.102749646 0.11055278 0.0070868605 -0.09849845
0.05280621 -0.012485205 0.15475231 0.2134289 -0.05884762 0.11557795 -0.034199998 0.016019523
-0.13392271 0.13242397 0.046725854 0.028491087 0.051833782 0.07809137 0.07060835 0.040482398
-0.030951504 0.13556038 0.06354922 0.05126432 0.17661154 -0.016945198 -0.115156524 0.0029365616
0.12694839 0.016995743 -0.06964528 -0.1050871 0.103571504 0.04835354 0.020276094 -0.12825584
0.07047495 0.13692805
00000000: 927a 69bd a393 133e c0fd 92bc 2847 dfbd
00000010: 0a54 143e 2289 03be 9b61 a5bd 8408 eb3d
00000020: ccda c43a c462 453e c512 acbc 24d1 23bd
00000030: 686e d2bd 7f69 e23d e538 e83b 8eb9 c9bd
00000040: 534b 583d bf8e 4cbc 6477 1e3e 1b8d 5a3e
00000050: 340a 71bd 22b4 ec3d 4c15 0cbd 603b 833c
00000060: 0923 09be 269a 073e 9c63 3f3d 2466 e93c
00000070: a94f 543d 5eee 9f3d 1c9b 903d dfd0 253d
00000080: 028e fdbc 57d0 0a3e 1826 823d 89fa 513d
00000090: a8d9 343e a8d0 8abc 2fd7 ebbd 5473 403b
000000a0: c2fe 013e a83a 8b3c 2fa2 8ebd e837 d7bd
000000b0: 4c1d d43d 5d0e 463d 0d1a a63c 8055 03be
000000c0: 2c55 903d de36 0c3e

output_layer.weight f4 [10, 50]
-0.108021066 -0.26034418 -0.076572515 0.116331235 -0.20898695 -0.14362194 0.081157945 -0.063371435
0.1841846 0.13081196 -0.07095363 -0.08433968 0.0057729012 0.26693457 -0.2920222 -0.025779407
-0.045412842 0.43764454 -0.17105973 -0.09156024 0.11560781 0.048804827 -0.07400176 -0.049938973
0.1085579 0.32930347 -0.09592795 0.0030495855 -0.057491913 0.10256412 -0.07737988 0.14999449
-0.037540592 -0.013414682 0.13442227 0.019526053 -0.07297965 0.08860285 0.12042471 0.11430917
-0.16236994 -0.100126475 0.050622657 -0.10238626 -0.24289042 0.32611108 -0.2949236 0.049706113
-0.17104198 -0.026446363 0.059465285 0.050698638 0.12640934 -0.07611527 -0.10549948 0.09179743
0.1173642 -0.28115818 -0.15111797 -0.15249284 -0.0005266749 -0.088354975 -0.10928555 -0.24283819
-0.18601164 -0.08060444 0.27733377 0.009833145 0.25361305 0.4737931 -0.09544464 -0.09474232
-0.018080436 -0.061385505 -0.045132753 -0.040943775 -0.21316426 -0.29825035 -0.07268802 0.025112942
0.049304835 -0.2746777 -0.18144472 0.2181747 -0.020482203 -0.14502539 0.29497194 0.0940248
-0.008340564 0.09282036 0.30238685 -0.20927535 0.14080878 -0.19439003 0.16469269 -0.30647862
0.2545001 -0.13884315 0.16804293 -0.28921652 0.09639764 0.092781074 -0.13975334 0.11117239
-0.01902737 0.0613396 -0.0052251695 -0.23975998 -0.2257935 -0.22938155 0.057618745 0.10621612
-0.03819231 0.0070443265 0.15023774 -0.075468116 0.03111206 0.091512635 0.16092165 -0.052056026
0.068950005 0.35511184 0.09390104 -0.15997405 -0.014458071 0.25388658 -0.15744966 0.18116511
-0.11485691 0.105937175 -0.12055556 -0.051507052 0.09821089 -0.06985105 -0.10430374 0.13664086
0.14576069 0.27574366 -0.1323449 -0.13995609 0.23874474 -0.21170533 -0.08828391 0.24780504
-0.15266576 -0.16639258 0.015334665 0.05375712 -0.16374119 -0.08510364 -0.021280583 0.048892032
-0.11463188 -0.00742884 -0.1671644 0.09884591 -0.025488788 0.013369855 0.042750347 -0.14015171
-0.04690801 0.11071564 0.12375313 0.04228398 -0.08239551 0.10885752 -0.035393573 -0.2268823
-0.09624136 0.047344867 -0.033068586 0.26216 -0.043463908 -0.1443994 -0.064675115 -0.29009116
0.36760074 0.16103372 -0.02627825 -0.10812599 0.066163555 0.27725008 0.032330632 -0.22348332
-0.09211804 0.1764474 -0.24772643 0.18920858 0.10565313 0.14250948 0.06899717 -0.2166498
0.024636582 -0.10821479 -0.055647336 -0.21517703 0.3987757 -0.14802526 -0.19530624 0.012160752
-0.012382916 0.21977156 -0.08809844 0.07238738 0.16265993 0.15744273 -0.050072197 -0.11705011
-0.025007302 0.30059797 -0.06523234 0.092472345 -0.013229792 0.12845434 0.18577361 0.113178246
-0.060670763 -0.19226591 0.11621353 -0.10494605 -0.11341377 -0.19723259 -0.14933959 0.18650177
0.10624141 -0.20045577 -0.03203732 -0.20747852 -0.104520865 -0.12359468 0.10284245 -0.08853906
0.037028104 -0.10749218 0.008053078 -0.12045699 0.0066000572 -0.31979397 0.0053805304 0.040645774
-0.014064232 0.04485575 -0.070950024 0.013210875 0.28540117 0.01757451 -0.33571306 0.019099945
0.2596766 0.32885024 -0.13817589 -0.043357093 -0.14020237 -0.057285644 -0.1761604 -0.011486933
00000000: 263a ddbd d54b 85be 0dd2 9cbd 123f ee3d
00000010: ad00 56be a111 13be 2336 a63d e2c8 81bd
00000020: e39a 3c3e 92f3 053e 2350 91bd 48ba acbd
00000030: 9b2a bd3b a6ab 883e ef83 95be 562f d3bc
00000040: d102 3abd f212 e03e 482a 2fbe ef83 bbbd
00000050: cac3 ec3d 92e7 473d 3c8e 97bd cf8c 4cbd
00000060: 9b53 de3d 779a a83e e075 c4bd 8edb 473b
00000070: a47c 6bbd 230d d23d 5879 9ebd 2898 193e
00000080: 2ac4 19bd 41c9 5bbc fea5 093e 1af5 9f3c
00000090: 5b76 95bd 6975 b53d 3ba1 f63d ed1a ea3d
000000a0: 4e44 26be 1c0f cdbd b459 4f3d e3af d1bd
000000b0: 44b8 78be 08f8 a63e 3a00 97be a398 4b3d
000000c0: a125 2fbe 0ba6 d8bc df91 733d 60a9 4f3d
000000d0: 7371 013e 53e2 9bbd 1d10 d8bd 4a00 bc3d
000000e0: a45c f03d f7f3 8fbe abbe 1abe 1527 1cbe
000000f0: 8e10 0aba 74f3 b4bd 1ad1 dfbd 93aa 78be
00000100: d679 3ebe f113 a5bd b1fe 8d3e 331b 213c
00000110: 92d9 813e 0295 f23e 7b78 c3bd 4308 c2bd
00000120: 6c1d 94bc 5e6f 7bbd 1fdd 38bd a9b4 27bd
00000130: bb47 5abe 45b4 98be 75dd 94bd a8b9 cd3c
00000140: def3 493d 8ea2 8cbe a5cc 39be 3069 5f3e
00000150: 4bca a7bc 8981 14be 9006 973e 1390 c03d
00000160: dca6 08bc 9a18 be3d 73d2 9a3e 474c 56be
00000170: 2d30 103e 2e0e 47be 33a5 283e c4ea 9cbe
00000180: d64d 823e e62c 0ebe 7213 2c3e 3014 94be
00000190: 206c c53d 0104 be3d 801b 0fbe 5aae e33d
000001a0: 49df 9bbc 3b3f 7b3d e637 abbb a483 75be
000001b0: 6936 67be ffe2 6abe a201 6c3d d687 d93d
000001c0: 8a6f 1cbd 18d4 e63b ecd7 193e 078f 9abd
000001d0: b8de fe3c fa6a bb3d a5c8 243e b338 55bd
000001e0: a935 8d3d 38d1 b53e 304f c03d 3dd0 23be
000001f0: 8ce1 6cbc 6cfd 813e 7c3a 21be 5983 393e
00000200: 1a3a ebbd 97f5 d83d d5e5 f6bd 0ff9 52bd
00000210: cb22 c93d 110e 8fbd 339d d5bd 95eb 0b3e
00000220: 4a42 153e 462e 8d3e 6c85 07be a650 0fbe
00000230: 8079 743e 48c9 58be 32ce b4bd 9bc0 7d3e
00000240: 6a54 1cbe d162 2abe 3f3e 7b3c 6d30 5c3d
00000250: c5ab 27be d14a aebd 9e54 aebc 0343 483d
00000260: 1ec4 eabd a06d f3bb 252d 2bbe b96f ca3d
00000270: ddcd d0bc 3c0d 5b3c fd1a 2f3d ee83 0fbe
00000280: 9d22 40bd e2be e23d 4872 fd3d f731 2d3d
00000290: fabe a8bd b1f0 de3d daf8 10bd d553 68be
000002a0: 311a c5bd b1ec 413d ed72 07bd d639 863e
000002b0: 3607 32bd 70dd 13be 6374 84bd d486 94be
000002c0: 2a36 bc3e 06e6 243e 7c45 d7bc 2971 ddbd
000002d0: c280 873d b9f3 8d3e 206d 043d d0d8 64be
000002e0: 62a8 bcbd a1ae 343e ffab 7dbe e5bf 413e
000002f0: ab60 d83d 01ee 113e 634e 8d3d 72d9 5dbe
00000300: a8d2 c93c b79f ddbd 76ee 63bd 5e57 5cbe
00000310: 542c cc3e ef93 17be 5cfe 47be e43d 473c
00000320: b7e1 4abc cc0b 613e f46c b4bd d63f 943d
00000330: 5390 263e ab38 213e 8118 4dbd f8b7 efbd
00000340: 1ddc ccbc fae7 993e 8898 85bd 2462 bd3d
00000350: c5c1 58bc 8989 033e 703b 3e3e ffc9 e73d
00000360: e881 78bd 5be1 44be 5c01 ee3d f4ed d6bd
00000370: 7b45 e8bd 57f7 49be 7aec 18be 52fa 3e3e
00000380: 1995 d93d 4744 4dbe 9139 03bd 4075 54be
00000390: 090f d6bd 351f fdbd 109f d23d f753 b5bd
000003a0: c8aa 173d dc24 dcbd 0ff1 033c 28b2 f6bd
000003b0: 4b45 d83b 09bc a3be 294f b03b 2f7c 263d
000003c0: aa6d 66bc aaba 373d 3f4e 91bd 6d72 583c
000003d0: 1a20 923e 6bf8 8f3c 95e2 abbe 7d77 9c3c
000003e0: 55f4 843e 0f5f a83e fb7d 0dbe 3597 31bd
000003f0: 3691 0fbe 5aa4 6abd 6463 34be b033 3cbc

output_layer.bias f4 [10]
-0.11367697 0.07286897 -0.26325417 -0.20538044 0.077933975 0.07635784 0.025820656 0.19134253
-0.13703068 0.14050318
00000000: 79cf e8bd 543c 953d 40c9 86be 404f 52be
00000010: d99b 9f3d 8061 9c3d d785 d33c 4cef 433e
00000020: c551 0cbe 11e0 0f3e
